Using GPU: NVIDIA GB10 (121.6GB)
GPU sanity test passed
AMP BF16 - Blackwell (NVIDIA GB10)
Dashboard on http://0.0.0.0:8080
No checkpoint found. Starting fresh.
Torch IR graph at exception: graph(%input.3 : Float(*, 2, 128, 128, strides=[32768, 16384, 128, 1], requires_grad=0, device=cuda:0),
      %1 : Float(*, 6, strides=[6, 1], requires_grad=0, device=cuda:0),
      %input.47 : Float(*, 3, 84, 84, strides=[21168, 7056, 84, 1], requires_grad=0, device=cuda:0),
      %3 : Float(*, 512, strides=[512, 1], requires_grad=0, device=cuda:0),
      %prev_z : Float(*, 1024, strides=[1024, 1], requires_grad=0, device=cuda:0),
      %prev_a : Float(*, 2, strides=[2, 1], requires_grad=0, device=cuda:0),
      %world_model.encoder.bev_encoder.conv1.weight : Float(128, 2, 3, 3, strides=[18, 9, 3, 1], requires_grad=1, device=cuda:0),
      %world_model.encoder.bev_encoder.conv1.bias : Float(128, strides=[1], requires_grad=1, device=cuda:0),
      %world_model.encoder.bev_encoder.res1.conv1.weight : Float(128, 128, 3, 3, strides=[1152, 9, 3, 1], requires_grad=1, device=cuda:0),
      %world_model.encoder.bev_encoder.res1.conv1.bias : Float(128, strides=[1], requires_grad=1, device=cuda:0),
      %world_model.encoder.bev_encoder.res1.conv2.weight : Float(128, 128, 3, 3, strides=[1152, 9, 3, 1], requires_grad=1, device=cuda:0),
      %world_model.encoder.bev_encoder.res1.conv2.bias : Float(128, strides=[1], requires_grad=1, device=cuda:0),
      %world_model.encoder.bev_encoder.conv2.weight : Float(256, 128, 3, 3, strides=[1152, 9, 3, 1], requires_grad=1, device=cuda:0),
      %world_model.encoder.bev_encoder.conv2.bias : Float(256, strides=[1], requires_grad=1, device=cuda:0),
      %world_model.encoder.bev_encoder.res2.conv1.weight : Float(256, 256, 3, 3, strides=[2304, 9, 3, 1], requires_grad=1, device=cuda:0),
      %world_model.encoder.bev_encoder.res2.conv1.bias : Float(256, strides=[1], requires_grad=1, device=cuda:0),
      %world_model.encoder.bev_encoder.res2.conv2.weight : Float(256, 256, 3, 3, strides=[2304, 9, 3, 1], requires_grad=1, device=cuda:0),
      %world_model.encoder.bev_encoder.res2.conv2.bias : Float(256, strides=[1], requires_grad=1, device=cuda:0),
      %world_model.encoder.bev_encoder.conv3.weight : Float(384, 256, 3, 3, strides=[2304, 9, 3, 1], requires_grad=1, device=cuda:0),
      %world_model.encoder.bev_encoder.conv3.bias : Float(384, strides=[1], requires_grad=1, device=cuda:0),
      %world_model.encoder.bev_encoder.res3.conv1.weight : Float(384, 384, 3, 3, strides=[3456, 9, 3, 1], requires_grad=1, device=cuda:0),
      %world_model.encoder.bev_encoder.res3.conv1.bias : Float(384, strides=[1], requires_grad=1, device=cuda:0),
      %world_model.encoder.bev_encoder.res3.conv2.weight : Float(384, 384, 3, 3, strides=[3456, 9, 3, 1], requires_grad=1, device=cuda:0),
      %world_model.encoder.bev_encoder.res3.conv2.bias : Float(384, strides=[1], requires_grad=1, device=cuda:0),
      %world_model.encoder.bev_encoder.conv4.weight : Float(384, 384, 3, 3, strides=[3456, 9, 3, 1], requires_grad=1, device=cuda:0),
      %world_model.encoder.bev_encoder.conv4.bias : Float(384, strides=[1], requires_grad=1, device=cuda:0),
      %world_model.encoder.bev_encoder.conv5.weight : Float(256, 384, 3, 3, strides=[3456, 9, 3, 1], requires_grad=1, device=cuda:0),
      %world_model.encoder.bev_encoder.conv5.bias : Float(256, strides=[1], requires_grad=1, device=cuda:0),
      %world_model.encoder.rgb_encoder.conv.0.weight : Float(32, 3, 5, 5, strides=[75, 25, 5, 1], requires_grad=1, device=cuda:0),
      %world_model.encoder.rgb_encoder.conv.0.bias : Float(32, strides=[1], requires_grad=1, device=cuda:0),
      %world_model.encoder.rgb_encoder.conv.2.weight : Float(64, 32, 3, 3, strides=[288, 9, 3, 1], requires_grad=1, device=cuda:0),
      %world_model.encoder.rgb_encoder.conv.2.bias : Float(64, strides=[1], requires_grad=1, device=cuda:0),
      %world_model.encoder.rgb_encoder.conv.4.weight : Float(128, 64, 3, 3, strides=[576, 9, 3, 1], requires_grad=1, device=cuda:0),
      %world_model.encoder.rgb_encoder.conv.4.bias : Float(128, strides=[1], requires_grad=1, device=cuda:0),
      %world_model.encoder.rgb_encoder.conv.6.weight : Float(128, 128, 3, 3, strides=[1152, 9, 3, 1], requires_grad=1, device=cuda:0),
      %world_model.encoder.rgb_encoder.conv.6.bias : Float(128, strides=[1], requires_grad=1, device=cuda:0),
      %world_model.encoder.proprio_encoder.0.weight : Float(128, 6, strides=[6, 1], requires_grad=1, device=cuda:0),
      %world_model.encoder.proprio_encoder.0.bias : Float(128, strides=[1], requires_grad=1, device=cuda:0),
      %world_model.encoder.proprio_encoder.2.weight : Float(128, 128, strides=[128, 1], requires_grad=1, device=cuda:0),
      %world_model.encoder.proprio_encoder.2.bias : Float(128, strides=[1], requires_grad=1, device=cuda:0),
      %world_model.encoder.fuse.0.weight : Float(1024, 4736, strides=[4736, 1], requires_grad=1, device=cuda:0),
      %world_model.encoder.fuse.0.bias : Float(1024, strides=[1], requires_grad=1, device=cuda:0),
      %world_model.rssm.pre_gru.0.weight : Float(512, 1026, strides=[1026, 1], requires_grad=1, device=cuda:0),
      %world_model.rssm.pre_gru.0.bias : Float(512, strides=[1], requires_grad=1, device=cuda:0),
      %world_model.rssm.gru.x2h.weight : Float(1536, 512, strides=[512, 1], requires_grad=1, device=cuda:0),
      %world_model.rssm.gru.x2h.bias : Float(1536, strides=[1], requires_grad=1, device=cuda:0),
      %world_model.rssm.gru.h2h.weight : Float(1536, 512, strides=[512, 1], requires_grad=1, device=cuda:0),
      %world_model.rssm.gru.h2h.bias : Float(1536, strides=[1], requires_grad=1, device=cuda:0),
      %world_model.rssm.prior_mlp.0.weight : Float(512, 512, strides=[512, 1], requires_grad=1, device=cuda:0),
      %world_model.rssm.prior_mlp.0.bias : Float(512, strides=[1], requires_grad=1, device=cuda:0),
      %world_model.rssm.prior_mlp.2.weight : Float(1024, 512, strides=[512, 1], requires_grad=1, device=cuda:0),
      %world_model.rssm.prior_mlp.2.bias : Float(1024, strides=[1], requires_grad=1, device=cuda:0),
      %world_model.rssm.post_mlp.0.weight : Float(512, 1536, strides=[1536, 1], requires_grad=1, device=cuda:0),
      %world_model.rssm.post_mlp.0.bias : Float(512, strides=[1], requires_grad=1, device=cuda:0),
      %world_model.rssm.post_mlp.2.weight : Float(1024, 512, strides=[512, 1], requires_grad=1, device=cuda:0),
      %world_model.rssm.post_mlp.2.bias : Float(1024, strides=[1], requires_grad=1, device=cuda:0),
      %world_model.bev_decoder.fc.weight : Float(512, 1536, strides=[1536, 1], requires_grad=1, device=cuda:0),
      %world_model.bev_decoder.fc.bias : Float(512, strides=[1], requires_grad=1, device=cuda:0),
      %world_model.bev_decoder.deconv1.weight : Float(32, 64, 4, 4, strides=[1024, 16, 4, 1], requires_grad=1, device=cuda:0),
      %world_model.bev_decoder.deconv1.bias : Float(64, strides=[1], requires_grad=1, device=cuda:0),
      %world_model.bev_decoder.deconv2.weight : Float(64, 64, 4, 4, strides=[1024, 16, 4, 1], requires_grad=1, device=cuda:0),
      %world_model.bev_decoder.deconv2.bias : Float(64, strides=[1], requires_grad=1, device=cuda:0),
      %world_model.bev_decoder.deconv3.weight : Float(64, 64, 4, 4, strides=[1024, 16, 4, 1], requires_grad=1, device=cuda:0),
      %world_model.bev_decoder.deconv3.bias : Float(64, strides=[1], requires_grad=1, device=cuda:0),
      %world_model.bev_decoder.res1.conv1.weight : Float(64, 64, 3, 3, strides=[576, 9, 3, 1], requires_grad=1, device=cuda:0),
      %world_model.bev_decoder.res1.conv1.bias : Float(64, strides=[1], requires_grad=1, device=cuda:0),
      %world_model.bev_decoder.res1.conv2.weight : Float(64, 64, 3, 3, strides=[576, 9, 3, 1], requires_grad=1, device=cuda:0),
      %world_model.bev_decoder.res1.conv2.bias : Float(64, strides=[1], requires_grad=1, device=cuda:0),
      %world_model.bev_decoder.deconv4.weight : Float(64, 32, 4, 4, strides=[512, 16, 4, 1], requires_grad=1, device=cuda:0),
      %world_model.bev_decoder.deconv4.bias : Float(32, strides=[1], requires_grad=1, device=cuda:0),
      %world_model.bev_decoder.res2.conv1.weight : Float(32, 32, 3, 3, strides=[288, 9, 3, 1], requires_grad=1, device=cuda:0),
      %world_model.bev_decoder.res2.conv1.bias : Float(32, strides=[1], requires_grad=1, device=cuda:0),
      %world_model.bev_decoder.res2.conv2.weight : Float(32, 32, 3, 3, strides=[288, 9, 3, 1], requires_grad=1, device=cuda:0),
      %world_model.bev_decoder.res2.conv2.bias : Float(32, strides=[1], requires_grad=1, device=cuda:0),
      %world_model.bev_decoder.deconv5.weight : Float(32, 2, 4, 4, strides=[32, 16, 4, 1], requires_grad=1, device=cuda:0),
      %world_model.bev_decoder.deconv5.bias : Float(2, strides=[1], requires_grad=1, device=cuda:0),
      %world_model.proprio_decoder.0.weight : Float(256, 1536, strides=[1536, 1], requires_grad=1, device=cuda:0),
      %world_model.proprio_decoder.0.bias : Float(256, strides=[1], requires_grad=1, device=cuda:0),
      %world_model.proprio_decoder.2.weight : Float(6, 256, strides=[256, 1], requires_grad=1, device=cuda:0),
      %world_model.proprio_decoder.2.bias : Float(6, strides=[1], requires_grad=1, device=cuda:0),
      %world_model.reward_head.0.weight : Float(256, 1536, strides=[1536, 1], requires_grad=1, device=cuda:0),
      %world_model.reward_head.0.bias : Float(256, strides=[1], requires_grad=1, device=cuda:0),
      %world_model.reward_head.2.weight : Float(1, 256, strides=[256, 1], requires_grad=1, device=cuda:0),
      %world_model.reward_head.2.bias : Float(1, strides=[1], requires_grad=1, device=cuda:0),
      %world_model.continue_head.0.weight : Float(256, 1536, strides=[1536, 1], requires_grad=1, device=cuda:0),
      %world_model.continue_head.0.bias : Float(256, strides=[1], requires_grad=1, device=cuda:0),
      %world_model.continue_head.2.weight : Float(1, 256, strides=[256, 1], requires_grad=1, device=cuda:0),
      %world_model.continue_head.2.bias : Float(1, strides=[1], requires_grad=1, device=cuda:0),
      %actor.log_std : Float(2, strides=[1], requires_grad=1, device=cuda:0),
      %actor.net.0.weight : Float(512, 1536, strides=[1536, 1], requires_grad=1, device=cuda:0),
      %actor.net.0.bias : Float(512, strides=[1], requires_grad=1, device=cuda:0),
      %actor.net.2.weight : Float(512, 512, strides=[512, 1], requires_grad=1, device=cuda:0),
      %actor.net.2.bias : Float(512, strides=[1], requires_grad=1, device=cuda:0),
      %actor.mean_head.weight : Float(2, 512, strides=[512, 1], requires_grad=1, device=cuda:0),
      %actor.mean_head.bias : Float(2, strides=[1], requires_grad=1, device=cuda:0)):
  %1851 : Tensor[] = prim::ListConstruct(%prev_z, %prev_a), scope: model_architectures.DreamerActorOnnxWrapper::
  %2352 : Long(device=cpu) = prim::Constant[value={-1}](), scope: model_architectures.DreamerActorOnnxWrapper::
  %1853 : Float(1, 1026, strides=[1026, 1], requires_grad=0, device=cuda:0) = aten::cat(%1851, %2352), scope: model_architectures.DreamerActorOnnxWrapper:: # /home/benson/ros2-rover/remote_training_server/model_architectures.py:1318:0
  %input.1 : Float(1, 512, strides=[512, 1], requires_grad=1, device=cuda:0) = aten::linear(%1853, %world_model.rssm.pre_gru.0.weight, %world_model.rssm.pre_gru.0.bias), scope: model_architectures.DreamerActorOnnxWrapper::/torch.nn.modules.container.Sequential::pre_gru/torch.nn.modules.linear.Linear::pre_gru.0 # /home/benson/venv/lib/python3.12/site-packages/torch/nn/modules/linear.py:134:0
  %1855 : Float(1, 512, strides=[512, 1], requires_grad=1, device=cuda:0) = aten::silu(%input.1), scope: model_architectures.DreamerActorOnnxWrapper::/torch.nn.modules.container.Sequential::pre_gru/torch.nn.modules.activation.SiLU::pre_gru.1 # /home/benson/venv/lib/python3.12/site-packages/torch/nn/functional.py:2397:0
  %1856 : Float(1, 1536, strides=[1536, 1], requires_grad=1, device=cuda:0) = aten::linear(%1855, %world_model.rssm.gru.x2h.weight, %world_model.rssm.gru.x2h.bias), scope: model_architectures.DreamerActorOnnxWrapper::/model_architectures.ExportableGRUCell::gru/torch.nn.modules.linear.Linear::x2h # /home/benson/venv/lib/python3.12/site-packages/torch/nn/modules/linear.py:134:0
  %1857 : Float(1, 1536, strides=[1536, 1], requires_grad=1, device=cuda:0) = aten::linear(%3, %world_model.rssm.gru.h2h.weight, %world_model.rssm.gru.h2h.bias), scope: model_architectures.DreamerActorOnnxWrapper::/model_architectures.ExportableGRUCell::gru/torch.nn.modules.linear.Linear::h2h # /home/benson/venv/lib/python3.12/site-packages/torch/nn/modules/linear.py:134:0
  %2331 : Float(1, 512, strides=[1536, 1], requires_grad=1, device=cuda:0), %2332 : Float(1, 512, strides=[1536, 1], requires_grad=1, device=cuda:0), %2333 : Float(1, 512, strides=[1536, 1], requires_grad=1, device=cuda:0) = prim::ConstantChunk[chunks=3, dim=-1](%1856), scope: model_architectures.DreamerActorOnnxWrapper::/model_architectures.ExportableGRUCell::gru # /home/benson/ros2-rover/remote_training_server/model_architectures.py:1254:0
  %2334 : Float(1, 512, strides=[1536, 1], requires_grad=1, device=cuda:0), %2335 : Float(1, 512, strides=[1536, 1], requires_grad=1, device=cuda:0), %2336 : Float(1, 512, strides=[1536, 1], requires_grad=1, device=cuda:0) = prim::ConstantChunk[chunks=3, dim=-1](%1857), scope: model_architectures.DreamerActorOnnxWrapper::/model_architectures.ExportableGRUCell::gru # /home/benson/ros2-rover/remote_training_server/model_architectures.py:1255:0
  %2353 : Long(device=cpu) = prim::Constant[value={1}](), scope: model_architectures.DreamerActorOnnxWrapper::/model_architectures.ExportableGRUCell::gru
  %1871 : Float(1, 512, strides=[512, 1], requires_grad=1, device=cuda:0) = aten::add(%2331, %2334, %2353), scope: model_architectures.DreamerActorOnnxWrapper::/model_architectures.ExportableGRUCell::gru # /home/benson/ros2-rover/remote_training_server/model_architectures.py:1256:0
  %1872 : Float(1, 512, strides=[512, 1], requires_grad=1, device=cuda:0) = aten::sigmoid(%1871), scope: model_architectures.DreamerActorOnnxWrapper::/model_architectures.ExportableGRUCell::gru # /home/benson/ros2-rover/remote_training_server/model_architectures.py:1256:0
  %1874 : Float(1, 512, strides=[512, 1], requires_grad=1, device=cuda:0) = aten::add(%2332, %2335, %2353), scope: model_architectures.DreamerActorOnnxWrapper::/model_architectures.ExportableGRUCell::gru # /home/benson/ros2-rover/remote_training_server/model_architectures.py:1257:0
  %1875 : Float(1, 512, strides=[512, 1], requires_grad=1, device=cuda:0) = aten::sigmoid(%1874), scope: model_architectures.DreamerActorOnnxWrapper::/model_architectures.ExportableGRUCell::gru # /home/benson/ros2-rover/remote_training_server/model_architectures.py:1257:0
  %1876 : Float(1, 512, strides=[512, 1], requires_grad=1, device=cuda:0) = aten::mul(%1872, %2336), scope: model_architectures.DreamerActorOnnxWrapper::/model_architectures.ExportableGRUCell::gru # /home/benson/ros2-rover/remote_training_server/model_architectures.py:1258:0
  %1878 : Float(1, 512, strides=[512, 1], requires_grad=1, device=cuda:0) = aten::add(%2333, %1876, %2353), scope: model_architectures.DreamerActorOnnxWrapper::/model_architectures.ExportableGRUCell::gru # /home/benson/ros2-rover/remote_training_server/model_architectures.py:1258:0
  %1879 : Float(1, 512, strides=[512, 1], requires_grad=1, device=cuda:0) = aten::tanh(%1878), scope: model_architectures.DreamerActorOnnxWrapper::/model_architectures.ExportableGRUCell::gru # /home/benson/ros2-rover/remote_training_server/model_architectures.py:1258:0
  %2354 : Double(device=cpu) = prim::Constant[value={1}](), scope: model_architectures.DreamerActorOnnxWrapper::/model_architectures.ExportableGRUCell::gru
  %1882 : Float(1, 512, strides=[512, 1], requires_grad=1, device=cuda:0) = aten::rsub(%1875, %2354, %2353), scope: model_architectures.DreamerActorOnnxWrapper::/model_architectures.ExportableGRUCell::gru # /home/benson/venv/lib/python3.12/site-packages/torch/_tensor.py:1116:0
  %1883 : Float(1, 512, strides=[512, 1], requires_grad=1, device=cuda:0) = aten::mul(%1882, %1879), scope: model_architectures.DreamerActorOnnxWrapper::/model_architectures.ExportableGRUCell::gru # /home/benson/ros2-rover/remote_training_server/model_architectures.py:1259:0
  %1884 : Float(1, 512, strides=[512, 1], requires_grad=1, device=cuda:0) = aten::mul(%1875, %3), scope: model_architectures.DreamerActorOnnxWrapper::/model_architectures.ExportableGRUCell::gru # /home/benson/ros2-rover/remote_training_server/model_architectures.py:1259:0
  %h : Float(1, 512, strides=[512, 1], requires_grad=1, device=cuda:0) = aten::add(%1883, %1884, %2353), scope: model_architectures.DreamerActorOnnxWrapper::/model_architectures.ExportableGRUCell::gru # /home/benson/ros2-rover/remote_training_server/model_architectures.py:1259:0
  %2269 : int[] = prim::Constant[value=[2, 2]]()
  %2270 : int[] = prim::Constant[value=[1, 1]]()
  %2355 : Bool(device=cpu) = prim::Constant[value={0}](), scope: model_architectures.DreamerActorOnnxWrapper::/model_architectures.DreamerEncoder::encoder/model_architectures.UnifiedBEVEncoder::bev_encoder/torch.nn.modules.conv.Conv2d::conv1
  %2272 : int[] = prim::Constant[value=[0, 0]]()
  %2356 : Bool(device=cpu) = prim::Constant[value={1}](), scope: model_architectures.DreamerActorOnnxWrapper::/model_architectures.DreamerEncoder::encoder/model_architectures.UnifiedBEVEncoder::bev_encoder/torch.nn.modules.conv.Conv2d::conv1
  %input.5 : Float(1, 128, 64, 64, strides=[524288, 4096, 64, 1], requires_grad=0, device=cuda:0) = aten::_convolution(%input.3, %world_model.encoder.bev_encoder.conv1.weight, %world_model.encoder.bev_encoder.conv1.bias, %2269, %2270, %2270, %2355, %2272, %2353, %2356, %2355, %2356, %2356), scope: model_architectures.DreamerActorOnnxWrapper::/model_architectures.DreamerEncoder::encoder/model_architectures.UnifiedBEVEncoder::bev_encoder/torch.nn.modules.conv.Conv2d::conv1 # /home/benson/venv/lib/python3.12/site-packages/torch/nn/modules/conv.py:548:0
  %2337 : Float(1, 128, 64, 64, strides=[524288, 4096, 64, 1], requires_grad=1, device=cuda:0) = aten::relu(%input.5), scope: model_architectures.DreamerActorOnnxWrapper::/model_architectures.DreamerEncoder::encoder/model_architectures.UnifiedBEVEncoder::bev_encoder/torch.nn.modules.activation.ReLU::relu # /home/benson/venv/lib/python3.12/site-packages/torch/nn/functional.py:1721:0
  %input.9 : Float(1, 128, 64, 64, strides=[524288, 4096, 64, 1], requires_grad=0, device=cuda:0) = aten::_convolution(%2337, %world_model.encoder.bev_encoder.res1.conv1.weight, %world_model.encoder.bev_encoder.res1.conv1.bias, %2270, %2270, %2270, %2355, %2272, %2353, %2356, %2355, %2356, %2356), scope: model_architectures.DreamerActorOnnxWrapper::/model_architectures.DreamerEncoder::encoder/model_architectures.UnifiedBEVEncoder::bev_encoder/model_architectures.ResBlock::res1/torch.nn.modules.conv.Conv2d::conv1 # /home/benson/venv/lib/python3.12/site-packages/torch/nn/modules/conv.py:548:0
  %2338 : Float(1, 128, 64, 64, strides=[524288, 4096, 64, 1], requires_grad=1, device=cuda:0) = aten::relu(%input.9), scope: model_architectures.DreamerActorOnnxWrapper::/model_architectures.DreamerEncoder::encoder/model_architectures.UnifiedBEVEncoder::bev_encoder/model_architectures.ResBlock::res1/torch.nn.modules.activation.ReLU::relu # /home/benson/venv/lib/python3.12/site-packages/torch/nn/functional.py:1721:0
  %1945 : Float(1, 128, 64, 64, strides=[524288, 4096, 64, 1], requires_grad=0, device=cuda:0) = aten::_convolution(%2338, %world_model.encoder.bev_encoder.res1.conv2.weight, %world_model.encoder.bev_encoder.res1.conv2.bias, %2270, %2270, %2270, %2355, %2272, %2353, %2356, %2355, %2356, %2356), scope: model_architectures.DreamerActorOnnxWrapper::/model_architectures.DreamerEncoder::encoder/model_architectures.UnifiedBEVEncoder::bev_encoder/model_architectures.ResBlock::res1/torch.nn.modules.conv.Conv2d::conv2 # /home/benson/venv/lib/python3.12/site-packages/torch/nn/modules/conv.py:548:0
  %input.13 : Float(1, 128, 64, 64, strides=[524288, 4096, 64, 1], requires_grad=1, device=cuda:0) = aten::add(%2337, %1945, %2353), scope: model_architectures.DreamerActorOnnxWrapper::/model_architectures.DreamerEncoder::encoder/model_architectures.UnifiedBEVEncoder::bev_encoder/model_architectures.ResBlock::res1 # /home/benson/ros2-rover/remote_training_server/model_architectures.py:570:0
  %2339 : Float(1, 128, 64, 64, strides=[524288, 4096, 64, 1], requires_grad=1, device=cuda:0) = aten::relu(%input.13), scope: model_architectures.DreamerActorOnnxWrapper::/model_architectures.DreamerEncoder::encoder/model_architectures.UnifiedBEVEncoder::bev_encoder/model_architectures.ResBlock::res1/torch.nn.modules.activation.ReLU::relu # /home/benson/venv/lib/python3.12/site-packages/torch/nn/functional.py:1721:0
  %input.17 : Float(1, 256, 32, 32, strides=[262144, 1024, 32, 1], requires_grad=0, device=cuda:0) = aten::_convolution(%2339, %world_model.encoder.bev_encoder.conv2.weight, %world_model.encoder.bev_encoder.conv2.bias, %2269, %2270, %2270, %2355, %2272, %2353, %2356, %2355, %2356, %2356), scope: model_architectures.DreamerActorOnnxWrapper::/model_architectures.DreamerEncoder::encoder/model_architectures.UnifiedBEVEncoder::bev_encoder/torch.nn.modules.conv.Conv2d::conv2 # /home/benson/venv/lib/python3.12/site-packages/torch/nn/modules/conv.py:548:0
  %2340 : Float(1, 256, 32, 32, strides=[262144, 1024, 32, 1], requires_grad=1, device=cuda:0) = aten::relu(%input.17), scope: model_architectures.DreamerActorOnnxWrapper::/model_architectures.DreamerEncoder::encoder/model_architectures.UnifiedBEVEncoder::bev_encoder/torch.nn.modules.activation.ReLU::relu # /home/benson/venv/lib/python3.12/site-packages/torch/nn/functional.py:1721:0
  %input.21 : Float(1, 256, 32, 32, strides=[262144, 1024, 32, 1], requires_grad=0, device=cuda:0) = aten::_convolution(%2340, %world_model.encoder.bev_encoder.res2.conv1.weight, %world_model.encoder.bev_encoder.res2.conv1.bias, %2270, %2270, %2270, %2355, %2272, %2353, %2356, %2355, %2356, %2356), scope: model_architectures.DreamerActorOnnxWrapper::/model_architectures.DreamerEncoder::encoder/model_architectures.UnifiedBEVEncoder::bev_encoder/model_architectures.ResBlock::res2/torch.nn.modules.conv.Conv2d::conv1 # /home/benson/venv/lib/python3.12/site-packages/torch/nn/modules/conv.py:548:0
  %2341 : Float(1, 256, 32, 32, strides=[262144, 1024, 32, 1], requires_grad=1, device=cuda:0) = aten::relu(%input.21), scope: model_architectures.DreamerActorOnnxWrapper::/model_architectures.DreamerEncoder::encoder/model_architectures.UnifiedBEVEncoder::bev_encoder/model_architectures.ResBlock::res2/torch.nn.modules.activation.ReLU::relu # /home/benson/venv/lib/python3.12/site-packages/torch/nn/functional.py:1721:0
  %2007 : Float(1, 256, 32, 32, strides=[262144, 1024, 32, 1], requires_grad=0, device=cuda:0) = aten::_convolution(%2341, %world_model.encoder.bev_encoder.res2.conv2.weight, %world_model.encoder.bev_encoder.res2.conv2.bias, %2270, %2270, %2270, %2355, %2272, %2353, %2356, %2355, %2356, %2356), scope: model_architectures.DreamerActorOnnxWrapper::/model_architectures.DreamerEncoder::encoder/model_architectures.UnifiedBEVEncoder::bev_encoder/model_architectures.ResBlock::res2/torch.nn.modules.conv.Conv2d::conv2 # /home/benson/venv/lib/python3.12/site-packages/torch/nn/modules/conv.py:548:0
  %input.25 : Float(1, 256, 32, 32, strides=[262144, 1024, 32, 1], requires_grad=1, device=cuda:0) = aten::add(%2340, %2007, %2353), scope: model_architectures.DreamerActorOnnxWrapper::/model_architectures.DreamerEncoder::encoder/model_architectures.UnifiedBEVEncoder::bev_encoder/model_architectures.ResBlock::res2 # /home/benson/ros2-rover/remote_training_server/model_architectures.py:570:0
  %2342 : Float(1, 256, 32, 32, strides=[262144, 1024, 32, 1], requires_grad=1, device=cuda:0) = aten::relu(%input.25), scope: model_architectures.DreamerActorOnnxWrapper::/model_architectures.DreamerEncoder::encoder/model_architectures.UnifiedBEVEncoder::bev_encoder/model_architectures.ResBlock::res2/torch.nn.modules.activation.ReLU::relu # /home/benson/venv/lib/python3.12/site-packages/torch/nn/functional.py:1721:0
  %input.29 : Float(1, 384, 16, 16, strides=[98304, 256, 16, 1], requires_grad=0, device=cuda:0) = aten::_convolution(%2342, %world_model.encoder.bev_encoder.conv3.weight, %world_model.encoder.bev_encoder.conv3.bias, %2269, %2270, %2270, %2355, %2272, %2353, %2356, %2355, %2356, %2356), scope: model_architectures.DreamerActorOnnxWrapper::/model_architectures.DreamerEncoder::encoder/model_architectures.UnifiedBEVEncoder::bev_encoder/torch.nn.modules.conv.Conv2d::conv3 # /home/benson/venv/lib/python3.12/site-packages/torch/nn/modules/conv.py:548:0
  %2343 : Float(1, 384, 16, 16, strides=[98304, 256, 16, 1], requires_grad=1, device=cuda:0) = aten::relu(%input.29), scope: model_architectures.DreamerActorOnnxWrapper::/model_architectures.DreamerEncoder::encoder/model_architectures.UnifiedBEVEncoder::bev_encoder/torch.nn.modules.activation.ReLU::relu # /home/benson/venv/lib/python3.12/site-packages/torch/nn/functional.py:1721:0
  %input.33 : Float(1, 384, 16, 16, strides=[98304, 256, 16, 1], requires_grad=0, device=cuda:0) = aten::_convolution(%2343, %world_model.encoder.bev_encoder.res3.conv1.weight, %world_model.encoder.bev_encoder.res3.conv1.bias, %2270, %2270, %2270, %2355, %2272, %2353, %2356, %2355, %2356, %2356), scope: model_architectures.DreamerActorOnnxWrapper::/model_architectures.DreamerEncoder::encoder/model_architectures.UnifiedBEVEncoder::bev_encoder/model_architectures.ResBlock::res3/torch.nn.modules.conv.Conv2d::conv1 # /home/benson/venv/lib/python3.12/site-packages/torch/nn/modules/conv.py:548:0
  %2344 : Float(1, 384, 16, 16, strides=[98304, 256, 16, 1], requires_grad=1, device=cuda:0) = aten::relu(%input.33), scope: model_architectures.DreamerActorOnnxWrapper::/model_architectures.DreamerEncoder::encoder/model_architectures.UnifiedBEVEncoder::bev_encoder/model_architectures.ResBlock::res3/torch.nn.modules.activation.ReLU::relu # /home/benson/venv/lib/python3.12/site-packages/torch/nn/functional.py:1721:0
  %2069 : Float(1, 384, 16, 16, strides=[98304, 256, 16, 1], requires_grad=0, device=cuda:0) = aten::_convolution(%2344, %world_model.encoder.bev_encoder.res3.conv2.weight, %world_model.encoder.bev_encoder.res3.conv2.bias, %2270, %2270, %2270, %2355, %2272, %2353, %2356, %2355, %2356, %2356), scope: model_architectures.DreamerActorOnnxWrapper::/model_architectures.DreamerEncoder::encoder/model_architectures.UnifiedBEVEncoder::bev_encoder/model_architectures.ResBlock::res3/torch.nn.modules.conv.Conv2d::conv2 # /home/benson/venv/lib/python3.12/site-packages/torch/nn/modules/conv.py:548:0
  %input.37 : Float(1, 384, 16, 16, strides=[98304, 256, 16, 1], requires_grad=1, device=cuda:0) = aten::add(%2343, %2069, %2353), scope: model_architectures.DreamerActorOnnxWrapper::/model_architectures.DreamerEncoder::encoder/model_architectures.UnifiedBEVEncoder::bev_encoder/model_architectures.ResBlock::res3 # /home/benson/ros2-rover/remote_training_server/model_architectures.py:570:0
  %2345 : Float(1, 384, 16, 16, strides=[98304, 256, 16, 1], requires_grad=1, device=cuda:0) = aten::relu(%input.37), scope: model_architectures.DreamerActorOnnxWrapper::/model_architectures.DreamerEncoder::encoder/model_architectures.UnifiedBEVEncoder::bev_encoder/model_architectures.ResBlock::res3/torch.nn.modules.activation.ReLU::relu # /home/benson/venv/lib/python3.12/site-packages/torch/nn/functional.py:1721:0
  %input.41 : Float(1, 384, 8, 8, strides=[24576, 64, 8, 1], requires_grad=0, device=cuda:0) = aten::_convolution(%2345, %world_model.encoder.bev_encoder.conv4.weight, %world_model.encoder.bev_encoder.conv4.bias, %2269, %2270, %2270, %2355, %2272, %2353, %2356, %2355, %2356, %2356), scope: model_architectures.DreamerActorOnnxWrapper::/model_architectures.DreamerEncoder::encoder/model_architectures.UnifiedBEVEncoder::bev_encoder/torch.nn.modules.conv.Conv2d::conv4 # /home/benson/venv/lib/python3.12/site-packages/torch/nn/modules/conv.py:548:0
  %2346 : Float(1, 384, 8, 8, strides=[24576, 64, 8, 1], requires_grad=1, device=cuda:0) = aten::relu(%input.41), scope: model_architectures.DreamerActorOnnxWrapper::/model_architectures.DreamerEncoder::encoder/model_architectures.UnifiedBEVEncoder::bev_encoder/torch.nn.modules.activation.ReLU::relu # /home/benson/venv/lib/python3.12/site-packages/torch/nn/functional.py:1721:0
  %input.45 : Float(1, 256, 4, 4, strides=[4096, 16, 4, 1], requires_grad=0, device=cuda:0) = aten::_convolution(%2346, %world_model.encoder.bev_encoder.conv5.weight, %world_model.encoder.bev_encoder.conv5.bias, %2269, %2270, %2270, %2355, %2272, %2353, %2356, %2355, %2356, %2356), scope: model_architectures.DreamerActorOnnxWrapper::/model_architectures.DreamerEncoder::encoder/model_architectures.UnifiedBEVEncoder::bev_encoder/torch.nn.modules.conv.Conv2d::conv5 # /home/benson/venv/lib/python3.12/site-packages/torch/nn/modules/conv.py:548:0
  %2347 : Float(1, 256, 4, 4, strides=[4096, 16, 4, 1], requires_grad=1, device=cuda:0) = aten::relu(%input.45), scope: model_architectures.DreamerActorOnnxWrapper::/model_architectures.DreamerEncoder::encoder/model_architectures.UnifiedBEVEncoder::bev_encoder/torch.nn.modules.activation.ReLU::relu # /home/benson/venv/lib/python3.12/site-packages/torch/nn/functional.py:1721:0
  %2115 : Float(1, 4096, strides=[4096, 1], requires_grad=1, device=cuda:0) = aten::flatten(%2347, %2353, %2352), scope: model_architectures.DreamerActorOnnxWrapper::/model_architectures.DreamerEncoder::encoder/model_architectures.UnifiedBEVEncoder::bev_encoder # /home/benson/ros2-rover/remote_training_server/model_architectures.py:635:0
  %2313 : int[] = prim::Constant[value=[4, 4]]()
  %input.49 : Float(1, 32, 21, 21, strides=[14112, 441, 21, 1], requires_grad=0, device=cuda:0) = aten::_convolution(%input.47, %world_model.encoder.rgb_encoder.conv.0.weight, %world_model.encoder.rgb_encoder.conv.0.bias, %2313, %2269, %2270, %2355, %2272, %2353, %2356, %2355, %2356, %2356), scope: model_architectures.DreamerActorOnnxWrapper::/model_architectures.DreamerEncoder::encoder/model_architectures.RGBEncoder::rgb_encoder/torch.nn.modules.container.Sequential::conv/torch.nn.modules.conv.Conv2d::conv.0 # /home/benson/venv/lib/python3.12/site-packages/torch/nn/modules/conv.py:548:0
  %2348 : Float(1, 32, 21, 21, strides=[14112, 441, 21, 1], requires_grad=1, device=cuda:0) = aten::relu(%input.49), scope: model_architectures.DreamerActorOnnxWrapper::/model_architectures.DreamerEncoder::encoder/model_architectures.RGBEncoder::rgb_encoder/torch.nn.modules.container.Sequential::conv/torch.nn.modules.activation.ReLU::conv.1 # /home/benson/venv/lib/python3.12/site-packages/torch/nn/functional.py:1721:0
  %input.53 : Float(1, 64, 11, 11, strides=[7744, 121, 11, 1], requires_grad=0, device=cuda:0) = aten::_convolution(%2348, %world_model.encoder.rgb_encoder.conv.2.weight, %world_model.encoder.rgb_encoder.conv.2.bias, %2269, %2270, %2270, %2355, %2272, %2353, %2356, %2355, %2356, %2356), scope: model_architectures.DreamerActorOnnxWrapper::/model_architectures.DreamerEncoder::encoder/model_architectures.RGBEncoder::rgb_encoder/torch.nn.modules.container.Sequential::conv/torch.nn.modules.conv.Conv2d::conv.2 # /home/benson/venv/lib/python3.12/site-packages/torch/nn/modules/conv.py:548:0
  %2349 : Float(1, 64, 11, 11, strides=[7744, 121, 11, 1], requires_grad=1, device=cuda:0) = aten::relu(%input.53), scope: model_architectures.DreamerActorOnnxWrapper::/model_architectures.DreamerEncoder::encoder/model_architectures.RGBEncoder::rgb_encoder/torch.nn.modules.container.Sequential::conv/torch.nn.modules.activation.ReLU::conv.3 # /home/benson/venv/lib/python3.12/site-packages/torch/nn/functional.py:1721:0
  %input.57 : Float(1, 128, 6, 6, strides=[4608, 36, 6, 1], requires_grad=0, device=cuda:0) = aten::_convolution(%2349, %world_model.encoder.rgb_encoder.conv.4.weight, %world_model.encoder.rgb_encoder.conv.4.bias, %2269, %2270, %2270, %2355, %2272, %2353, %2356, %2355, %2356, %2356), scope: model_architectures.DreamerActorOnnxWrapper::/model_architectures.DreamerEncoder::encoder/model_architectures.RGBEncoder::rgb_encoder/torch.nn.modules.container.Sequential::conv/torch.nn.modules.conv.Conv2d::conv.4 # /home/benson/venv/lib/python3.12/site-packages/torch/nn/modules/conv.py:548:0
  %2350 : Float(1, 128, 6, 6, strides=[4608, 36, 6, 1], requires_grad=1, device=cuda:0) = aten::relu(%input.57), scope: model_architectures.DreamerActorOnnxWrapper::/model_architectures.DreamerEncoder::encoder/model_architectures.RGBEncoder::rgb_encoder/torch.nn.modules.container.Sequential::conv/torch.nn.modules.activation.ReLU::conv.5 # /home/benson/venv/lib/python3.12/site-packages/torch/nn/functional.py:1721:0
  %input.61 : Float(1, 128, 3, 3, strides=[1152, 9, 3, 1], requires_grad=0, device=cuda:0) = aten::_convolution(%2350, %world_model.encoder.rgb_encoder.conv.6.weight, %world_model.encoder.rgb_encoder.conv.6.bias, %2269, %2270, %2270, %2355, %2272, %2353, %2356, %2355, %2356, %2356), scope: model_architectures.DreamerActorOnnxWrapper::/model_architectures.DreamerEncoder::encoder/model_architectures.RGBEncoder::rgb_encoder/torch.nn.modules.container.Sequential::conv/torch.nn.modules.conv.Conv2d::conv.6 # /home/benson/venv/lib/python3.12/site-packages/torch/nn/modules/conv.py:548:0
  %2351 : Float(1, 128, 3, 3, strides=[1152, 9, 3, 1], requires_grad=1, device=cuda:0) = aten::relu(%input.61), scope: model_architectures.DreamerActorOnnxWrapper::/model_architectures.DreamerEncoder::encoder/model_architectures.RGBEncoder::rgb_encoder/torch.nn.modules.container.Sequential::conv/torch.nn.modules.activation.ReLU::conv.7 # /home/benson/venv/lib/python3.12/site-packages/torch/nn/functional.py:1721:0
  %2211 : Float(1, 128, 2, 2, strides=[512, 4, 2, 1], requires_grad=1, device=cuda:0) = aten::adaptive_avg_pool2d(%2351, %2269), scope: model_architectures.DreamerActorOnnxWrapper::/model_architectures.DreamerEncoder::encoder/model_architectures.RGBEncoder::rgb_encoder/torch.nn.modules.pooling.AdaptiveAvgPool2d::pool # /home/benson/venv/lib/python3.12/site-packages/torch/nn/functional.py:1399:0
  %2214 : Float(1, 512, strides=[512, 1], requires_grad=1, device=cuda:0) = aten::flatten(%2211, %2353, %2352), scope: model_architectures.DreamerActorOnnxWrapper::/model_architectures.DreamerEncoder::encoder/model_architectures.RGBEncoder::rgb_encoder # /home/benson/ros2-rover/remote_training_server/model_architectures.py:1021:0
  %input.65 : Float(1, 128, strides=[128, 1], requires_grad=1, device=cuda:0) = aten::linear(%1, %world_model.encoder.proprio_encoder.0.weight, %world_model.encoder.proprio_encoder.0.bias), scope: model_architectures.DreamerActorOnnxWrapper::/model_architectures.DreamerEncoder::encoder/torch.nn.modules.container.Sequential::proprio_encoder/torch.nn.modules.linear.Linear::proprio_encoder.0 # /home/benson/venv/lib/python3.12/site-packages/torch/nn/modules/linear.py:134:0
  %2216 : Float(1, 128, strides=[128, 1], requires_grad=1, device=cuda:0) = aten::silu(%input.65), scope: model_architectures.DreamerActorOnnxWrapper::/model_architectures.DreamerEncoder::encoder/torch.nn.modules.container.Sequential::proprio_encoder/torch.nn.modules.activation.SiLU::proprio_encoder.1 # /home/benson/venv/lib/python3.12/site-packages/torch/nn/functional.py:2397:0
  %input.67 : Float(1, 128, strides=[128, 1], requires_grad=1, device=cuda:0) = aten::linear(%2216, %world_model.encoder.proprio_encoder.2.weight, %world_model.encoder.proprio_encoder.2.bias), scope: model_architectures.DreamerActorOnnxWrapper::/model_architectures.DreamerEncoder::encoder/torch.nn.modules.container.Sequential::proprio_encoder/torch.nn.modules.linear.Linear::proprio_encoder.2 # /home/benson/venv/lib/python3.12/site-packages/torch/nn/modules/linear.py:134:0
  %2218 : Float(1, 128, strides=[128, 1], requires_grad=1, device=cuda:0) = aten::silu(%input.67), scope: model_architectures.DreamerActorOnnxWrapper::/model_architectures.DreamerEncoder::encoder/torch.nn.modules.container.Sequential::proprio_encoder/torch.nn.modules.activation.SiLU::proprio_encoder.3 # /home/benson/venv/lib/python3.12/site-packages/torch/nn/functional.py:2397:0
  %2219 : Tensor[] = prim::ListConstruct(%2115, %2214, %2218), scope: model_architectures.DreamerActorOnnxWrapper::/model_architectures.DreamerEncoder::encoder
  %2221 : Float(1, 4736, strides=[4736, 1], requires_grad=1, device=cuda:0) = aten::cat(%2219, %2352), scope: model_architectures.DreamerActorOnnxWrapper::/model_architectures.DreamerEncoder::encoder # /home/benson/ros2-rover/remote_training_server/model_architectures.py:1461:0
  %input.69 : Float(1, 1024, strides=[1024, 1], requires_grad=1, device=cuda:0) = aten::linear(%2221, %world_model.encoder.fuse.0.weight, %world_model.encoder.fuse.0.bias), scope: model_architectures.DreamerActorOnnxWrapper::/model_architectures.DreamerEncoder::encoder/torch.nn.modules.container.Sequential::fuse/torch.nn.modules.linear.Linear::fuse.0 # /home/benson/venv/lib/python3.12/site-packages/torch/nn/modules/linear.py:134:0
  %obs_embed : Float(1, 1024, strides=[1024, 1], requires_grad=1, device=cuda:0) = aten::silu(%input.69), scope: model_architectures.DreamerActorOnnxWrapper::/model_architectures.DreamerEncoder::encoder/torch.nn.modules.container.Sequential::fuse/torch.nn.modules.activation.SiLU::fuse.1 # /home/benson/venv/lib/python3.12/site-packages/torch/nn/functional.py:2397:0
  %2224 : Tensor[] = prim::ListConstruct(%h, %obs_embed), scope: model_architectures.DreamerActorOnnxWrapper::
  %2226 : Float(1, 1536, strides=[1536, 1], requires_grad=1, device=cuda:0) = aten::cat(%2224, %2352), scope: model_architectures.DreamerActorOnnxWrapper:: # /home/benson/ros2-rover/remote_training_server/model_architectures.py:1325:0
  %input.71 : Float(1, 512, strides=[512, 1], requires_grad=1, device=cuda:0) = aten::linear(%2226, %world_model.rssm.post_mlp.0.weight, %world_model.rssm.post_mlp.0.bias), scope: model_architectures.DreamerActorOnnxWrapper::/torch.nn.modules.container.Sequential::post_mlp/torch.nn.modules.linear.Linear::post_mlp.0 # /home/benson/venv/lib/python3.12/site-packages/torch/nn/modules/linear.py:134:0
  %2228 : Float(1, 512, strides=[512, 1], requires_grad=1, device=cuda:0) = aten::silu(%input.71), scope: model_architectures.DreamerActorOnnxWrapper::/torch.nn.modules.container.Sequential::post_mlp/torch.nn.modules.activation.SiLU::post_mlp.1 # /home/benson/venv/lib/python3.12/site-packages/torch/nn/functional.py:2397:0
  %2229 : Float(1, 1024, strides=[1024, 1], requires_grad=1, device=cuda:0) = aten::linear(%2228, %world_model.rssm.post_mlp.2.weight, %world_model.rssm.post_mlp.2.bias), scope: model_architectures.DreamerActorOnnxWrapper::/torch.nn.modules.container.Sequential::post_mlp/torch.nn.modules.linear.Linear::post_mlp.2 # /home/benson/venv/lib/python3.12/site-packages/torch/nn/modules/linear.py:134:0
  %2330 : int[] = prim::Constant[value=[-1, 32, 32]]()
  %post_lg : Float(1, 32, 32, strides=[1024, 32, 1], requires_grad=1, device=cuda:0) = aten::view(%2229, %2330), scope: model_architectures.DreamerActorOnnxWrapper:: # /home/benson/ros2-rover/remote_training_server/model_architectures.py:1325:0
  %2236 : NoneType = prim::Constant(), scope: model_architectures.DreamerActorOnnxWrapper::
  %2237 : Float(1, 32, 32, strides=[1024, 32, 1], requires_grad=1, device=cuda:0) = aten::softmax(%post_lg, %2352, %2236), scope: model_architectures.DreamerActorOnnxWrapper:: # /home/benson/venv/lib/python3.12/site-packages/torch/nn/functional.py:2159:0
  %2357 : Long(device=cpu) = prim::Constant[value={0}](), scope: model_architectures.DreamerActorOnnxWrapper::
  %2239 : Long(device=cpu) = aten::size(%input.3, %2357), scope: model_architectures.DreamerActorOnnxWrapper:: # /home/benson/ros2-rover/remote_training_server/model_architectures.py:1630:0
  %2358 : Long(device=cpu) = prim::Constant[value={1024}](), scope: model_architectures.DreamerActorOnnxWrapper::
  %2252 : int[] = prim::ListConstruct(%2239, %2358), scope: model_architectures.DreamerActorOnnxWrapper::
  %2253 : Float(1, 1024, strides=[1024, 1], requires_grad=1, device=cuda:0) = aten::view(%2237, %2252), scope: model_architectures.DreamerActorOnnxWrapper:: # /home/benson/ros2-rover/remote_training_server/model_architectures.py:1631:0
  %2254 : Tensor[] = prim::ListConstruct(%h, %2253), scope: model_architectures.DreamerActorOnnxWrapper::/model_architectures.DreamerActor::actor
  %2256 : Float(1, 1536, strides=[1536, 1], requires_grad=1, device=cuda:0) = aten::cat(%2254, %2352), scope: model_architectures.DreamerActorOnnxWrapper::/model_architectures.DreamerActor::actor # /home/benson/ros2-rover/remote_training_server/model_architectures.py:1538:0
  %input.73 : Float(1, 512, strides=[512, 1], requires_grad=1, device=cuda:0) = aten::linear(%2256, %actor.net.0.weight, %actor.net.0.bias), scope: model_architectures.DreamerActorOnnxWrapper::/model_architectures.DreamerActor::actor/torch.nn.modules.container.Sequential::net/torch.nn.modules.linear.Linear::net.0 # /home/benson/venv/lib/python3.12/site-packages/torch/nn/modules/linear.py:134:0
  %2258 : Float(1, 512, strides=[512, 1], requires_grad=1, device=cuda:0) = aten::silu(%input.73), scope: model_architectures.DreamerActorOnnxWrapper::/model_architectures.DreamerActor::actor/torch.nn.modules.container.Sequential::net/torch.nn.modules.activation.SiLU::net.1 # /home/benson/venv/lib/python3.12/site-packages/torch/nn/functional.py:2397:0
  %input : Float(1, 512, strides=[512, 1], requires_grad=1, device=cuda:0) = aten::linear(%2258, %actor.net.2.weight, %actor.net.2.bias), scope: model_architectures.DreamerActorOnnxWrapper::/model_architectures.DreamerActor::actor/torch.nn.modules.container.Sequential::net/torch.nn.modules.linear.Linear::net.2 # /home/benson/venv/lib/python3.12/site-packages/torch/nn/modules/linear.py:134:0
  %2260 : Float(1, 512, strides=[512, 1], requires_grad=1, device=cuda:0) = aten::silu(%input), scope: model_architectures.DreamerActorOnnxWrapper::/model_architectures.DreamerActor::actor/torch.nn.modules.container.Sequential::net/torch.nn.modules.activation.SiLU::net.3 # /home/benson/venv/lib/python3.12/site-packages/torch/nn/functional.py:2397:0
  %2261 : Float(1, 2, strides=[2, 1], requires_grad=1, device=cuda:0) = aten::linear(%2260, %actor.mean_head.weight, %actor.mean_head.bias), scope: model_architectures.DreamerActorOnnxWrapper::/model_architectures.DreamerActor::actor/torch.nn.modules.linear.Linear::mean_head # /home/benson/venv/lib/python3.12/site-packages/torch/nn/modules/linear.py:134:0
  %2359 : Double(device=cpu) = prim::Constant[value={-5}](), scope: model_architectures.DreamerActorOnnxWrapper::/model_architectures.DreamerActor::actor
  %2360 : Double(device=cpu) = prim::Constant[value={2}](), scope: model_architectures.DreamerActorOnnxWrapper::/model_architectures.DreamerActor::actor
  %2264 : Float(2, strides=[1], requires_grad=1, device=cuda:0) = aten::clamp(%actor.log_std, %2359, %2360), scope: model_architectures.DreamerActorOnnxWrapper::/model_architectures.DreamerActor::actor # /home/benson/ros2-rover/remote_training_server/model_architectures.py:1540:0
  return (%2261, %2264, %h, %2253)

ONNX export failed: Unsupported: ONNX export of operator adaptive_avg_pool2d, output size that are not factor of input size. Please feel free to request support or submit a pull request on PyTorch GitHub: https://github.com/pytorch/pytorch/issues  [Caused by the value '165 defined in (%165 : Long(2, strides=[1], device=cpu) = onnx::Constant[value= 2  2 [ CPULongType{2} ]]()
)' (type 'Tensor') in the TorchScript graph. The containing node has kind 'onnx::Constant'.] 

    Inputs:
        Empty
    Outputs:
        #0: 165 defined in (%165 : Long(2, strides=[1], device=cpu) = onnx::Constant[value= 2  2 [ CPULongType{2} ]]()
    )  (type 'Tensor')
Traceback (most recent call last):
  File "/home/benson/ros2-rover/remote_training_server/v620_dreamer_trainer.py", line 496, in _export_onnx
    torch.onnx.export(
  File "/home/benson/venv/lib/python3.12/site-packages/torch/onnx/__init__.py", line 334, in export
    export(
  File "/home/benson/venv/lib/python3.12/site-packages/torch/onnx/_internal/torchscript_exporter/utils.py", line 552, in export
    _export(
  File "/home/benson/venv/lib/python3.12/site-packages/torch/onnx/_internal/torchscript_exporter/utils.py", line 1515, in _export
    graph, params_dict, torch_out = _model_to_graph(
                                    ^^^^^^^^^^^^^^^^
  File "/home/benson/venv/lib/python3.12/site-packages/torch/onnx/_internal/torchscript_exporter/utils.py", line 1117, in _model_to_graph
    graph = _optimize_graph(
            ^^^^^^^^^^^^^^^^
  File "/home/benson/venv/lib/python3.12/site-packages/torch/onnx/_internal/torchscript_exporter/utils.py", line 689, in _optimize_graph
    graph = _C._jit_pass_onnx(graph, operator_export_type)
            ^^^^^^^^^^^^^^^^^^^^^^^^^^^^^^^^^^^^^^^^^^^^^^
  File "/home/benson/venv/lib/python3.12/site-packages/torch/onnx/_internal/torchscript_exporter/utils.py", line 1785, in _run_symbolic_function
    return symbolic_fn(graph_context, *inputs, **attrs)
           ^^^^^^^^^^^^^^^^^^^^^^^^^^^^^^^^^^^^^^^^^^^^
  File "/home/benson/venv/lib/python3.12/site-packages/torch/onnx/_internal/torchscript_exporter/symbolic_helper.py", line 477, in wrapper
    return fn(g, *args, **kwargs)
           ^^^^^^^^^^^^^^^^^^^^^^
  File "/home/benson/venv/lib/python3.12/site-packages/torch/onnx/_internal/torchscript_exporter/symbolic_opset9.py", line 1716, in symbolic_fn
    return symbolic_helper._unimplemented(
           ^^^^^^^^^^^^^^^^^^^^^^^^^^^^^^^
  File "/home/benson/venv/lib/python3.12/site-packages/torch/onnx/_internal/torchscript_exporter/symbolic_helper.py", line 673, in _unimplemented
    _onnx_unsupported(f"{op}, {msg}", value)
  File "/home/benson/venv/lib/python3.12/site-packages/torch/onnx/_internal/torchscript_exporter/symbolic_helper.py", line 683, in _onnx_unsupported
    raise errors.SymbolicValueError(
torch.onnx.errors.SymbolicValueError: Unsupported: ONNX export of operator adaptive_avg_pool2d, output size that are not factor of input size. Please feel free to request support or submit a pull request on PyTorch GitHub: https://github.com/pytorch/pytorch/issues  [Caused by the value '165 defined in (%165 : Long(2, strides=[1], device=cpu) = onnx::Constant[value= 2  2 [ CPULongType{2} ]]()
)' (type 'Tensor') in the TorchScript graph. The containing node has kind 'onnx::Constant'.] 

    Inputs:
        Empty
    Outputs:
        #0: 165 defined in (%165 : Long(2, strides=[1], device=cpu) = onnx::Constant[value= 2  2 [ CPULongType{2} ]]()
    )  (type 'Tensor')
Dreamer Trainer initialized: WM=19,097,578, Actor+Critic=2,100,741
  T_chunk=64, batch=16, horizon=15
ZMQ PULL bound on tcp://*:5555
ZMQ XPUB bound on tcp://*:5556
Waiting for 4 chunks before training starts...
Waiting for rover chunks...
