Using GPU: NVIDIA GB10 (121.6GB)
GPU sanity test passed
AMP BF16 - Blackwell (NVIDIA GB10)
Dashboard on http://0.0.0.0:8080
No checkpoint found. Starting fresh.
Torch IR graph at exception: graph(%input.3 : Float(*, 2, 128, 128, strides=[32768, 16384, 128, 1], requires_grad=0, device=cuda:0),
      %1 : Float(*, 6, strides=[6, 1], requires_grad=0, device=cuda:0),
      %input.47 : Float(*, 3, 84, 84, strides=[21168, 7056, 84, 1], requires_grad=0, device=cuda:0),
      %3 : Float(*, 512, strides=[512, 1], requires_grad=0, device=cuda:0),
      %prev_z : Float(*, 1024, strides=[1024, 1], requires_grad=0, device=cuda:0),
      %prev_a : Float(*, 2, strides=[2, 1], requires_grad=0, device=cuda:0),
      %world_model.encoder.bev_encoder.conv1.weight : Float(128, 2, 3, 3, strides=[18, 9, 3, 1], requires_grad=1, device=cuda:0),
      %world_model.encoder.bev_encoder.conv1.bias : Float(128, strides=[1], requires_grad=1, device=cuda:0),
      %world_model.encoder.bev_encoder.res1.conv1.weight : Float(128, 128, 3, 3, strides=[1152, 9, 3, 1], requires_grad=1, device=cuda:0),
      %world_model.encoder.bev_encoder.res1.conv1.bias : Float(128, strides=[1], requires_grad=1, device=cuda:0),
      %world_model.encoder.bev_encoder.res1.conv2.weight : Float(128, 128, 3, 3, strides=[1152, 9, 3, 1], requires_grad=1, device=cuda:0),
      %world_model.encoder.bev_encoder.res1.conv2.bias : Float(128, strides=[1], requires_grad=1, device=cuda:0),
      %world_model.encoder.bev_encoder.conv2.weight : Float(256, 128, 3, 3, strides=[1152, 9, 3, 1], requires_grad=1, device=cuda:0),
      %world_model.encoder.bev_encoder.conv2.bias : Float(256, strides=[1], requires_grad=1, device=cuda:0),
      %world_model.encoder.bev_encoder.res2.conv1.weight : Float(256, 256, 3, 3, strides=[2304, 9, 3, 1], requires_grad=1, device=cuda:0),
      %world_model.encoder.bev_encoder.res2.conv1.bias : Float(256, strides=[1], requires_grad=1, device=cuda:0),
      %world_model.encoder.bev_encoder.res2.conv2.weight : Float(256, 256, 3, 3, strides=[2304, 9, 3, 1], requires_grad=1, device=cuda:0),
      %world_model.encoder.bev_encoder.res2.conv2.bias : Float(256, strides=[1], requires_grad=1, device=cuda:0),
      %world_model.encoder.bev_encoder.conv3.weight : Float(384, 256, 3, 3, strides=[2304, 9, 3, 1], requires_grad=1, device=cuda:0),
      %world_model.encoder.bev_encoder.conv3.bias : Float(384, strides=[1], requires_grad=1, device=cuda:0),
      %world_model.encoder.bev_encoder.res3.conv1.weight : Float(384, 384, 3, 3, strides=[3456, 9, 3, 1], requires_grad=1, device=cuda:0),
      %world_model.encoder.bev_encoder.res3.conv1.bias : Float(384, strides=[1], requires_grad=1, device=cuda:0),
      %world_model.encoder.bev_encoder.res3.conv2.weight : Float(384, 384, 3, 3, strides=[3456, 9, 3, 1], requires_grad=1, device=cuda:0),
      %world_model.encoder.bev_encoder.res3.conv2.bias : Float(384, strides=[1], requires_grad=1, device=cuda:0),
      %world_model.encoder.bev_encoder.conv4.weight : Float(384, 384, 3, 3, strides=[3456, 9, 3, 1], requires_grad=1, device=cuda:0),
      %world_model.encoder.bev_encoder.conv4.bias : Float(384, strides=[1], requires_grad=1, device=cuda:0),
      %world_model.encoder.bev_encoder.conv5.weight : Float(256, 384, 3, 3, strides=[3456, 9, 3, 1], requires_grad=1, device=cuda:0),
      %world_model.encoder.bev_encoder.conv5.bias : Float(256, strides=[1], requires_grad=1, device=cuda:0),
      %world_model.encoder.rgb_encoder.conv.0.weight : Float(32, 3, 5, 5, strides=[75, 25, 5, 1], requires_grad=1, device=cuda:0),
      %world_model.encoder.rgb_encoder.conv.0.bias : Float(32, strides=[1], requires_grad=1, device=cuda:0),
      %world_model.encoder.rgb_encoder.conv.2.weight : Float(64, 32, 3, 3, strides=[288, 9, 3, 1], requires_grad=1, device=cuda:0),
      %world_model.encoder.rgb_encoder.conv.2.bias : Float(64, strides=[1], requires_grad=1, device=cuda:0),
      %world_model.encoder.rgb_encoder.conv.4.weight : Float(128, 64, 3, 3, strides=[576, 9, 3, 1], requires_grad=1, device=cuda:0),
      %world_model.encoder.rgb_encoder.conv.4.bias : Float(128, strides=[1], requires_grad=1, device=cuda:0),
      %world_model.encoder.rgb_encoder.conv.6.weight : Float(128, 128, 3, 3, strides=[1152, 9, 3, 1], requires_grad=1, device=cuda:0),
      %world_model.encoder.rgb_encoder.conv.6.bias : Float(128, strides=[1], requires_grad=1, device=cuda:0),
      %world_model.encoder.proprio_encoder.0.weight : Float(128, 6, strides=[6, 1], requires_grad=1, device=cuda:0),
      %world_model.encoder.proprio_encoder.0.bias : Float(128, strides=[1], requires_grad=1, device=cuda:0),
      %world_model.encoder.proprio_encoder.2.weight : Float(128, 128, strides=[128, 1], requires_grad=1, device=cuda:0),
      %world_model.encoder.proprio_encoder.2.bias : Float(128, strides=[1], requires_grad=1, device=cuda:0),
      %world_model.encoder.fuse.0.weight : Float(1024, 4736, strides=[4736, 1], requires_grad=1, device=cuda:0),
      %world_model.encoder.fuse.0.bias : Float(1024, strides=[1], requires_grad=1, device=cuda:0),
      %world_model.rssm.pre_gru.0.weight : Float(512, 1026, strides=[1026, 1], requires_grad=1, device=cuda:0),
      %world_model.rssm.pre_gru.0.bias : Float(512, strides=[1], requires_grad=1, device=cuda:0),
      %world_model.rssm.gru.weight_ih : Float(1536, 512, strides=[512, 1], requires_grad=1, device=cuda:0),
      %world_model.rssm.gru.weight_hh : Float(1536, 512, strides=[512, 1], requires_grad=1, device=cuda:0),
      %world_model.rssm.gru.bias_ih : Float(1536, strides=[1], requires_grad=1, device=cuda:0),
      %world_model.rssm.gru.bias_hh : Float(1536, strides=[1], requires_grad=1, device=cuda:0),
      %world_model.rssm.prior_mlp.0.weight : Float(512, 512, strides=[512, 1], requires_grad=1, device=cuda:0),
      %world_model.rssm.prior_mlp.0.bias : Float(512, strides=[1], requires_grad=1, device=cuda:0),
      %world_model.rssm.prior_mlp.2.weight : Float(1024, 512, strides=[512, 1], requires_grad=1, device=cuda:0),
      %world_model.rssm.prior_mlp.2.bias : Float(1024, strides=[1], requires_grad=1, device=cuda:0),
      %world_model.rssm.post_mlp.0.weight : Float(512, 1536, strides=[1536, 1], requires_grad=1, device=cuda:0),
      %world_model.rssm.post_mlp.0.bias : Float(512, strides=[1], requires_grad=1, device=cuda:0),
      %world_model.rssm.post_mlp.2.weight : Float(1024, 512, strides=[512, 1], requires_grad=1, device=cuda:0),
      %world_model.rssm.post_mlp.2.bias : Float(1024, strides=[1], requires_grad=1, device=cuda:0),
      %world_model.bev_decoder.fc.weight : Float(512, 1536, strides=[1536, 1], requires_grad=1, device=cuda:0),
      %world_model.bev_decoder.fc.bias : Float(512, strides=[1], requires_grad=1, device=cuda:0),
      %world_model.bev_decoder.deconv1.weight : Float(32, 64, 4, 4, strides=[1024, 16, 4, 1], requires_grad=1, device=cuda:0),
      %world_model.bev_decoder.deconv1.bias : Float(64, strides=[1], requires_grad=1, device=cuda:0),
      %world_model.bev_decoder.deconv2.weight : Float(64, 64, 4, 4, strides=[1024, 16, 4, 1], requires_grad=1, device=cuda:0),
      %world_model.bev_decoder.deconv2.bias : Float(64, strides=[1], requires_grad=1, device=cuda:0),
      %world_model.bev_decoder.deconv3.weight : Float(64, 64, 4, 4, strides=[1024, 16, 4, 1], requires_grad=1, device=cuda:0),
      %world_model.bev_decoder.deconv3.bias : Float(64, strides=[1], requires_grad=1, device=cuda:0),
      %world_model.bev_decoder.res1.conv1.weight : Float(64, 64, 3, 3, strides=[576, 9, 3, 1], requires_grad=1, device=cuda:0),
      %world_model.bev_decoder.res1.conv1.bias : Float(64, strides=[1], requires_grad=1, device=cuda:0),
      %world_model.bev_decoder.res1.conv2.weight : Float(64, 64, 3, 3, strides=[576, 9, 3, 1], requires_grad=1, device=cuda:0),
      %world_model.bev_decoder.res1.conv2.bias : Float(64, strides=[1], requires_grad=1, device=cuda:0),
      %world_model.bev_decoder.deconv4.weight : Float(64, 32, 4, 4, strides=[512, 16, 4, 1], requires_grad=1, device=cuda:0),
      %world_model.bev_decoder.deconv4.bias : Float(32, strides=[1], requires_grad=1, device=cuda:0),
      %world_model.bev_decoder.res2.conv1.weight : Float(32, 32, 3, 3, strides=[288, 9, 3, 1], requires_grad=1, device=cuda:0),
      %world_model.bev_decoder.res2.conv1.bias : Float(32, strides=[1], requires_grad=1, device=cuda:0),
      %world_model.bev_decoder.res2.conv2.weight : Float(32, 32, 3, 3, strides=[288, 9, 3, 1], requires_grad=1, device=cuda:0),
      %world_model.bev_decoder.res2.conv2.bias : Float(32, strides=[1], requires_grad=1, device=cuda:0),
      %world_model.bev_decoder.deconv5.weight : Float(32, 2, 4, 4, strides=[32, 16, 4, 1], requires_grad=1, device=cuda:0),
      %world_model.bev_decoder.deconv5.bias : Float(2, strides=[1], requires_grad=1, device=cuda:0),
      %world_model.proprio_decoder.0.weight : Float(256, 1536, strides=[1536, 1], requires_grad=1, device=cuda:0),
      %world_model.proprio_decoder.0.bias : Float(256, strides=[1], requires_grad=1, device=cuda:0),
      %world_model.proprio_decoder.2.weight : Float(6, 256, strides=[256, 1], requires_grad=1, device=cuda:0),
      %world_model.proprio_decoder.2.bias : Float(6, strides=[1], requires_grad=1, device=cuda:0),
      %world_model.reward_head.0.weight : Float(256, 1536, strides=[1536, 1], requires_grad=1, device=cuda:0),
      %world_model.reward_head.0.bias : Float(256, strides=[1], requires_grad=1, device=cuda:0),
      %world_model.reward_head.2.weight : Float(1, 256, strides=[256, 1], requires_grad=1, device=cuda:0),
      %world_model.reward_head.2.bias : Float(1, strides=[1], requires_grad=1, device=cuda:0),
      %world_model.continue_head.0.weight : Float(256, 1536, strides=[1536, 1], requires_grad=1, device=cuda:0),
      %world_model.continue_head.0.bias : Float(256, strides=[1], requires_grad=1, device=cuda:0),
      %world_model.continue_head.2.weight : Float(1, 256, strides=[256, 1], requires_grad=1, device=cuda:0),
      %world_model.continue_head.2.bias : Float(1, strides=[1], requires_grad=1, device=cuda:0),
      %actor.log_std : Float(2, strides=[1], requires_grad=1, device=cuda:0),
      %actor.net.0.weight : Float(512, 1536, strides=[1536, 1], requires_grad=1, device=cuda:0),
      %actor.net.0.bias : Float(512, strides=[1], requires_grad=1, device=cuda:0),
      %actor.net.2.weight : Float(512, 512, strides=[512, 1], requires_grad=1, device=cuda:0),
      %actor.net.2.bias : Float(512, strides=[1], requires_grad=1, device=cuda:0),
      %actor.mean_head.weight : Float(2, 512, strides=[512, 1], requires_grad=1, device=cuda:0),
      %actor.mean_head.bias : Float(2, strides=[1], requires_grad=1, device=cuda:0)):
  %1797 : Tensor[] = prim::ListConstruct(%prev_z, %prev_a), scope: model_architectures.DreamerActorOnnxWrapper::
  %2267 : Long(device=cpu) = prim::Constant[value={-1}](), scope: model_architectures.DreamerActorOnnxWrapper::
  %1799 : Float(1, 1026, strides=[1026, 1], requires_grad=0, device=cuda:0) = aten::cat(%1797, %2267), scope: model_architectures.DreamerActorOnnxWrapper:: # /home/benson/ros2-rover/remote_training_server/model_architectures.py:1294:0
  %input.1 : Float(1, 512, strides=[512, 1], requires_grad=1, device=cuda:0) = aten::linear(%1799, %world_model.rssm.pre_gru.0.weight, %world_model.rssm.pre_gru.0.bias), scope: model_architectures.DreamerActorOnnxWrapper::/torch.nn.modules.container.Sequential::pre_gru/torch.nn.modules.linear.Linear::pre_gru.0 # /home/benson/venv/lib/python3.12/site-packages/torch/nn/modules/linear.py:134:0
  %1801 : Float(1, 512, strides=[512, 1], requires_grad=1, device=cuda:0) = aten::silu(%input.1), scope: model_architectures.DreamerActorOnnxWrapper::/torch.nn.modules.container.Sequential::pre_gru/torch.nn.modules.activation.SiLU::pre_gru.1 # /home/benson/venv/lib/python3.12/site-packages/torch/nn/functional.py:2397:0
  %1802 : Float(512, 1536, strides=[1, 512], requires_grad=1, device=cuda:0) = aten::t(%world_model.rssm.gru.weight_ih), scope: model_architectures.DreamerActorOnnxWrapper::/torch.nn.modules.rnn.GRUCell::gru # /home/benson/venv/lib/python3.12/site-packages/torch/nn/modules/rnn.py:1874:0
  %1803 : Float(1, 1536, strides=[1536, 1], requires_grad=1, device=cuda:0) = aten::matmul(%1801, %1802), scope: model_architectures.DreamerActorOnnxWrapper::/torch.nn.modules.rnn.GRUCell::gru # /home/benson/venv/lib/python3.12/site-packages/torch/nn/modules/rnn.py:1874:0
  %1804 : Float(512, 1536, strides=[1, 512], requires_grad=1, device=cuda:0) = aten::t(%world_model.rssm.gru.weight_hh), scope: model_architectures.DreamerActorOnnxWrapper::/torch.nn.modules.rnn.GRUCell::gru # /home/benson/venv/lib/python3.12/site-packages/torch/nn/modules/rnn.py:1874:0
  %1805 : Float(1, 1536, strides=[1536, 1], requires_grad=1, device=cuda:0) = aten::matmul(%3, %1804), scope: model_architectures.DreamerActorOnnxWrapper::/torch.nn.modules.rnn.GRUCell::gru # /home/benson/venv/lib/python3.12/site-packages/torch/nn/modules/rnn.py:1874:0
  %h : Float(1, 512, strides=[512, 1], requires_grad=1, device=cuda:0), %1807 : Float(1, 2560, strides=[2560, 1], requires_grad=0, device=cuda:0) = aten::_thnn_fused_gru_cell(%1803, %1805, %3, %world_model.rssm.gru.bias_ih, %world_model.rssm.gru.bias_hh), scope: model_architectures.DreamerActorOnnxWrapper::/torch.nn.modules.rnn.GRUCell::gru # /home/benson/venv/lib/python3.12/site-packages/torch/nn/modules/rnn.py:1874:0
  %2190 : int[] = prim::Constant[value=[2, 2]]()
  %2191 : int[] = prim::Constant[value=[1, 1]]()
  %2268 : Bool(device=cpu) = prim::Constant[value={0}](), scope: model_architectures.DreamerActorOnnxWrapper::/model_architectures.DreamerEncoder::encoder/model_architectures.UnifiedBEVEncoder::bev_encoder/torch.nn.modules.conv.Conv2d::conv1
  %2193 : int[] = prim::Constant[value=[0, 0]]()
  %2269 : Long(device=cpu) = prim::Constant[value={1}](), scope: model_architectures.DreamerActorOnnxWrapper::/model_architectures.DreamerEncoder::encoder/model_architectures.UnifiedBEVEncoder::bev_encoder/torch.nn.modules.conv.Conv2d::conv1
  %2270 : Bool(device=cpu) = prim::Constant[value={1}](), scope: model_architectures.DreamerActorOnnxWrapper::/model_architectures.DreamerEncoder::encoder/model_architectures.UnifiedBEVEncoder::bev_encoder/torch.nn.modules.conv.Conv2d::conv1
  %input.5 : Float(1, 128, 64, 64, strides=[524288, 4096, 64, 1], requires_grad=0, device=cuda:0) = aten::_convolution(%input.3, %world_model.encoder.bev_encoder.conv1.weight, %world_model.encoder.bev_encoder.conv1.bias, %2190, %2191, %2191, %2268, %2193, %2269, %2270, %2268, %2270, %2270), scope: model_architectures.DreamerActorOnnxWrapper::/model_architectures.DreamerEncoder::encoder/model_architectures.UnifiedBEVEncoder::bev_encoder/torch.nn.modules.conv.Conv2d::conv1 # /home/benson/venv/lib/python3.12/site-packages/torch/nn/modules/conv.py:548:0
  %2252 : Float(1, 128, 64, 64, strides=[524288, 4096, 64, 1], requires_grad=1, device=cuda:0) = aten::relu(%input.5), scope: model_architectures.DreamerActorOnnxWrapper::/model_architectures.DreamerEncoder::encoder/model_architectures.UnifiedBEVEncoder::bev_encoder/torch.nn.modules.activation.ReLU::relu # /home/benson/venv/lib/python3.12/site-packages/torch/nn/functional.py:1721:0
  %input.9 : Float(1, 128, 64, 64, strides=[524288, 4096, 64, 1], requires_grad=0, device=cuda:0) = aten::_convolution(%2252, %world_model.encoder.bev_encoder.res1.conv1.weight, %world_model.encoder.bev_encoder.res1.conv1.bias, %2191, %2191, %2191, %2268, %2193, %2269, %2270, %2268, %2270, %2270), scope: model_architectures.DreamerActorOnnxWrapper::/model_architectures.DreamerEncoder::encoder/model_architectures.UnifiedBEVEncoder::bev_encoder/model_architectures.ResBlock::res1/torch.nn.modules.conv.Conv2d::conv1 # /home/benson/venv/lib/python3.12/site-packages/torch/nn/modules/conv.py:548:0
  %2253 : Float(1, 128, 64, 64, strides=[524288, 4096, 64, 1], requires_grad=1, device=cuda:0) = aten::relu(%input.9), scope: model_architectures.DreamerActorOnnxWrapper::/model_architectures.DreamerEncoder::encoder/model_architectures.UnifiedBEVEncoder::bev_encoder/model_architectures.ResBlock::res1/torch.nn.modules.activation.ReLU::relu # /home/benson/venv/lib/python3.12/site-packages/torch/nn/functional.py:1721:0
  %1866 : Float(1, 128, 64, 64, strides=[524288, 4096, 64, 1], requires_grad=0, device=cuda:0) = aten::_convolution(%2253, %world_model.encoder.bev_encoder.res1.conv2.weight, %world_model.encoder.bev_encoder.res1.conv2.bias, %2191, %2191, %2191, %2268, %2193, %2269, %2270, %2268, %2270, %2270), scope: model_architectures.DreamerActorOnnxWrapper::/model_architectures.DreamerEncoder::encoder/model_architectures.UnifiedBEVEncoder::bev_encoder/model_architectures.ResBlock::res1/torch.nn.modules.conv.Conv2d::conv2 # /home/benson/venv/lib/python3.12/site-packages/torch/nn/modules/conv.py:548:0
  %input.13 : Float(1, 128, 64, 64, strides=[524288, 4096, 64, 1], requires_grad=1, device=cuda:0) = aten::add(%2252, %1866, %2269), scope: model_architectures.DreamerActorOnnxWrapper::/model_architectures.DreamerEncoder::encoder/model_architectures.UnifiedBEVEncoder::bev_encoder/model_architectures.ResBlock::res1 # /home/benson/ros2-rover/remote_training_server/model_architectures.py:570:0
  %2254 : Float(1, 128, 64, 64, strides=[524288, 4096, 64, 1], requires_grad=1, device=cuda:0) = aten::relu(%input.13), scope: model_architectures.DreamerActorOnnxWrapper::/model_architectures.DreamerEncoder::encoder/model_architectures.UnifiedBEVEncoder::bev_encoder/model_architectures.ResBlock::res1/torch.nn.modules.activation.ReLU::relu # /home/benson/venv/lib/python3.12/site-packages/torch/nn/functional.py:1721:0
  %input.17 : Float(1, 256, 32, 32, strides=[262144, 1024, 32, 1], requires_grad=0, device=cuda:0) = aten::_convolution(%2254, %world_model.encoder.bev_encoder.conv2.weight, %world_model.encoder.bev_encoder.conv2.bias, %2190, %2191, %2191, %2268, %2193, %2269, %2270, %2268, %2270, %2270), scope: model_architectures.DreamerActorOnnxWrapper::/model_architectures.DreamerEncoder::encoder/model_architectures.UnifiedBEVEncoder::bev_encoder/torch.nn.modules.conv.Conv2d::conv2 # /home/benson/venv/lib/python3.12/site-packages/torch/nn/modules/conv.py:548:0
  %2255 : Float(1, 256, 32, 32, strides=[262144, 1024, 32, 1], requires_grad=1, device=cuda:0) = aten::relu(%input.17), scope: model_architectures.DreamerActorOnnxWrapper::/model_architectures.DreamerEncoder::encoder/model_architectures.UnifiedBEVEncoder::bev_encoder/torch.nn.modules.activation.ReLU::relu # /home/benson/venv/lib/python3.12/site-packages/torch/nn/functional.py:1721:0
  %input.21 : Float(1, 256, 32, 32, strides=[262144, 1024, 32, 1], requires_grad=0, device=cuda:0) = aten::_convolution(%2255, %world_model.encoder.bev_encoder.res2.conv1.weight, %world_model.encoder.bev_encoder.res2.conv1.bias, %2191, %2191, %2191, %2268, %2193, %2269, %2270, %2268, %2270, %2270), scope: model_architectures.DreamerActorOnnxWrapper::/model_architectures.DreamerEncoder::encoder/model_architectures.UnifiedBEVEncoder::bev_encoder/model_architectures.ResBlock::res2/torch.nn.modules.conv.Conv2d::conv1 # /home/benson/venv/lib/python3.12/site-packages/torch/nn/modules/conv.py:548:0
  %2256 : Float(1, 256, 32, 32, strides=[262144, 1024, 32, 1], requires_grad=1, device=cuda:0) = aten::relu(%input.21), scope: model_architectures.DreamerActorOnnxWrapper::/model_architectures.DreamerEncoder::encoder/model_architectures.UnifiedBEVEncoder::bev_encoder/model_architectures.ResBlock::res2/torch.nn.modules.activation.ReLU::relu # /home/benson/venv/lib/python3.12/site-packages/torch/nn/functional.py:1721:0
  %1928 : Float(1, 256, 32, 32, strides=[262144, 1024, 32, 1], requires_grad=0, device=cuda:0) = aten::_convolution(%2256, %world_model.encoder.bev_encoder.res2.conv2.weight, %world_model.encoder.bev_encoder.res2.conv2.bias, %2191, %2191, %2191, %2268, %2193, %2269, %2270, %2268, %2270, %2270), scope: model_architectures.DreamerActorOnnxWrapper::/model_architectures.DreamerEncoder::encoder/model_architectures.UnifiedBEVEncoder::bev_encoder/model_architectures.ResBlock::res2/torch.nn.modules.conv.Conv2d::conv2 # /home/benson/venv/lib/python3.12/site-packages/torch/nn/modules/conv.py:548:0
  %input.25 : Float(1, 256, 32, 32, strides=[262144, 1024, 32, 1], requires_grad=1, device=cuda:0) = aten::add(%2255, %1928, %2269), scope: model_architectures.DreamerActorOnnxWrapper::/model_architectures.DreamerEncoder::encoder/model_architectures.UnifiedBEVEncoder::bev_encoder/model_architectures.ResBlock::res2 # /home/benson/ros2-rover/remote_training_server/model_architectures.py:570:0
  %2257 : Float(1, 256, 32, 32, strides=[262144, 1024, 32, 1], requires_grad=1, device=cuda:0) = aten::relu(%input.25), scope: model_architectures.DreamerActorOnnxWrapper::/model_architectures.DreamerEncoder::encoder/model_architectures.UnifiedBEVEncoder::bev_encoder/model_architectures.ResBlock::res2/torch.nn.modules.activation.ReLU::relu # /home/benson/venv/lib/python3.12/site-packages/torch/nn/functional.py:1721:0
  %input.29 : Float(1, 384, 16, 16, strides=[98304, 256, 16, 1], requires_grad=0, device=cuda:0) = aten::_convolution(%2257, %world_model.encoder.bev_encoder.conv3.weight, %world_model.encoder.bev_encoder.conv3.bias, %2190, %2191, %2191, %2268, %2193, %2269, %2270, %2268, %2270, %2270), scope: model_architectures.DreamerActorOnnxWrapper::/model_architectures.DreamerEncoder::encoder/model_architectures.UnifiedBEVEncoder::bev_encoder/torch.nn.modules.conv.Conv2d::conv3 # /home/benson/venv/lib/python3.12/site-packages/torch/nn/modules/conv.py:548:0
  %2258 : Float(1, 384, 16, 16, strides=[98304, 256, 16, 1], requires_grad=1, device=cuda:0) = aten::relu(%input.29), scope: model_architectures.DreamerActorOnnxWrapper::/model_architectures.DreamerEncoder::encoder/model_architectures.UnifiedBEVEncoder::bev_encoder/torch.nn.modules.activation.ReLU::relu # /home/benson/venv/lib/python3.12/site-packages/torch/nn/functional.py:1721:0
  %input.33 : Float(1, 384, 16, 16, strides=[98304, 256, 16, 1], requires_grad=0, device=cuda:0) = aten::_convolution(%2258, %world_model.encoder.bev_encoder.res3.conv1.weight, %world_model.encoder.bev_encoder.res3.conv1.bias, %2191, %2191, %2191, %2268, %2193, %2269, %2270, %2268, %2270, %2270), scope: model_architectures.DreamerActorOnnxWrapper::/model_architectures.DreamerEncoder::encoder/model_architectures.UnifiedBEVEncoder::bev_encoder/model_architectures.ResBlock::res3/torch.nn.modules.conv.Conv2d::conv1 # /home/benson/venv/lib/python3.12/site-packages/torch/nn/modules/conv.py:548:0
  %2259 : Float(1, 384, 16, 16, strides=[98304, 256, 16, 1], requires_grad=1, device=cuda:0) = aten::relu(%input.33), scope: model_architectures.DreamerActorOnnxWrapper::/model_architectures.DreamerEncoder::encoder/model_architectures.UnifiedBEVEncoder::bev_encoder/model_architectures.ResBlock::res3/torch.nn.modules.activation.ReLU::relu # /home/benson/venv/lib/python3.12/site-packages/torch/nn/functional.py:1721:0
  %1990 : Float(1, 384, 16, 16, strides=[98304, 256, 16, 1], requires_grad=0, device=cuda:0) = aten::_convolution(%2259, %world_model.encoder.bev_encoder.res3.conv2.weight, %world_model.encoder.bev_encoder.res3.conv2.bias, %2191, %2191, %2191, %2268, %2193, %2269, %2270, %2268, %2270, %2270), scope: model_architectures.DreamerActorOnnxWrapper::/model_architectures.DreamerEncoder::encoder/model_architectures.UnifiedBEVEncoder::bev_encoder/model_architectures.ResBlock::res3/torch.nn.modules.conv.Conv2d::conv2 # /home/benson/venv/lib/python3.12/site-packages/torch/nn/modules/conv.py:548:0
  %input.37 : Float(1, 384, 16, 16, strides=[98304, 256, 16, 1], requires_grad=1, device=cuda:0) = aten::add(%2258, %1990, %2269), scope: model_architectures.DreamerActorOnnxWrapper::/model_architectures.DreamerEncoder::encoder/model_architectures.UnifiedBEVEncoder::bev_encoder/model_architectures.ResBlock::res3 # /home/benson/ros2-rover/remote_training_server/model_architectures.py:570:0
  %2260 : Float(1, 384, 16, 16, strides=[98304, 256, 16, 1], requires_grad=1, device=cuda:0) = aten::relu(%input.37), scope: model_architectures.DreamerActorOnnxWrapper::/model_architectures.DreamerEncoder::encoder/model_architectures.UnifiedBEVEncoder::bev_encoder/model_architectures.ResBlock::res3/torch.nn.modules.activation.ReLU::relu # /home/benson/venv/lib/python3.12/site-packages/torch/nn/functional.py:1721:0
  %input.41 : Float(1, 384, 8, 8, strides=[24576, 64, 8, 1], requires_grad=0, device=cuda:0) = aten::_convolution(%2260, %world_model.encoder.bev_encoder.conv4.weight, %world_model.encoder.bev_encoder.conv4.bias, %2190, %2191, %2191, %2268, %2193, %2269, %2270, %2268, %2270, %2270), scope: model_architectures.DreamerActorOnnxWrapper::/model_architectures.DreamerEncoder::encoder/model_architectures.UnifiedBEVEncoder::bev_encoder/torch.nn.modules.conv.Conv2d::conv4 # /home/benson/venv/lib/python3.12/site-packages/torch/nn/modules/conv.py:548:0
  %2261 : Float(1, 384, 8, 8, strides=[24576, 64, 8, 1], requires_grad=1, device=cuda:0) = aten::relu(%input.41), scope: model_architectures.DreamerActorOnnxWrapper::/model_architectures.DreamerEncoder::encoder/model_architectures.UnifiedBEVEncoder::bev_encoder/torch.nn.modules.activation.ReLU::relu # /home/benson/venv/lib/python3.12/site-packages/torch/nn/functional.py:1721:0
  %input.45 : Float(1, 256, 4, 4, strides=[4096, 16, 4, 1], requires_grad=0, device=cuda:0) = aten::_convolution(%2261, %world_model.encoder.bev_encoder.conv5.weight, %world_model.encoder.bev_encoder.conv5.bias, %2190, %2191, %2191, %2268, %2193, %2269, %2270, %2268, %2270, %2270), scope: model_architectures.DreamerActorOnnxWrapper::/model_architectures.DreamerEncoder::encoder/model_architectures.UnifiedBEVEncoder::bev_encoder/torch.nn.modules.conv.Conv2d::conv5 # /home/benson/venv/lib/python3.12/site-packages/torch/nn/modules/conv.py:548:0
  %2262 : Float(1, 256, 4, 4, strides=[4096, 16, 4, 1], requires_grad=1, device=cuda:0) = aten::relu(%input.45), scope: model_architectures.DreamerActorOnnxWrapper::/model_architectures.DreamerEncoder::encoder/model_architectures.UnifiedBEVEncoder::bev_encoder/torch.nn.modules.activation.ReLU::relu # /home/benson/venv/lib/python3.12/site-packages/torch/nn/functional.py:1721:0
  %2036 : Float(1, 4096, strides=[4096, 1], requires_grad=1, device=cuda:0) = aten::flatten(%2262, %2269, %2267), scope: model_architectures.DreamerActorOnnxWrapper::/model_architectures.DreamerEncoder::encoder/model_architectures.UnifiedBEVEncoder::bev_encoder # /home/benson/ros2-rover/remote_training_server/model_architectures.py:635:0
  %2234 : int[] = prim::Constant[value=[4, 4]]()
  %input.49 : Float(1, 32, 21, 21, strides=[14112, 441, 21, 1], requires_grad=0, device=cuda:0) = aten::_convolution(%input.47, %world_model.encoder.rgb_encoder.conv.0.weight, %world_model.encoder.rgb_encoder.conv.0.bias, %2234, %2190, %2191, %2268, %2193, %2269, %2270, %2268, %2270, %2270), scope: model_architectures.DreamerActorOnnxWrapper::/model_architectures.DreamerEncoder::encoder/model_architectures.RGBEncoder::rgb_encoder/torch.nn.modules.container.Sequential::conv/torch.nn.modules.conv.Conv2d::conv.0 # /home/benson/venv/lib/python3.12/site-packages/torch/nn/modules/conv.py:548:0
  %2263 : Float(1, 32, 21, 21, strides=[14112, 441, 21, 1], requires_grad=1, device=cuda:0) = aten::relu(%input.49), scope: model_architectures.DreamerActorOnnxWrapper::/model_architectures.DreamerEncoder::encoder/model_architectures.RGBEncoder::rgb_encoder/torch.nn.modules.container.Sequential::conv/torch.nn.modules.activation.ReLU::conv.1 # /home/benson/venv/lib/python3.12/site-packages/torch/nn/functional.py:1721:0
  %input.53 : Float(1, 64, 11, 11, strides=[7744, 121, 11, 1], requires_grad=0, device=cuda:0) = aten::_convolution(%2263, %world_model.encoder.rgb_encoder.conv.2.weight, %world_model.encoder.rgb_encoder.conv.2.bias, %2190, %2191, %2191, %2268, %2193, %2269, %2270, %2268, %2270, %2270), scope: model_architectures.DreamerActorOnnxWrapper::/model_architectures.DreamerEncoder::encoder/model_architectures.RGBEncoder::rgb_encoder/torch.nn.modules.container.Sequential::conv/torch.nn.modules.conv.Conv2d::conv.2 # /home/benson/venv/lib/python3.12/site-packages/torch/nn/modules/conv.py:548:0
  %2264 : Float(1, 64, 11, 11, strides=[7744, 121, 11, 1], requires_grad=1, device=cuda:0) = aten::relu(%input.53), scope: model_architectures.DreamerActorOnnxWrapper::/model_architectures.DreamerEncoder::encoder/model_architectures.RGBEncoder::rgb_encoder/torch.nn.modules.container.Sequential::conv/torch.nn.modules.activation.ReLU::conv.3 # /home/benson/venv/lib/python3.12/site-packages/torch/nn/functional.py:1721:0
  %input.57 : Float(1, 128, 6, 6, strides=[4608, 36, 6, 1], requires_grad=0, device=cuda:0) = aten::_convolution(%2264, %world_model.encoder.rgb_encoder.conv.4.weight, %world_model.encoder.rgb_encoder.conv.4.bias, %2190, %2191, %2191, %2268, %2193, %2269, %2270, %2268, %2270, %2270), scope: model_architectures.DreamerActorOnnxWrapper::/model_architectures.DreamerEncoder::encoder/model_architectures.RGBEncoder::rgb_encoder/torch.nn.modules.container.Sequential::conv/torch.nn.modules.conv.Conv2d::conv.4 # /home/benson/venv/lib/python3.12/site-packages/torch/nn/modules/conv.py:548:0
  %2265 : Float(1, 128, 6, 6, strides=[4608, 36, 6, 1], requires_grad=1, device=cuda:0) = aten::relu(%input.57), scope: model_architectures.DreamerActorOnnxWrapper::/model_architectures.DreamerEncoder::encoder/model_architectures.RGBEncoder::rgb_encoder/torch.nn.modules.container.Sequential::conv/torch.nn.modules.activation.ReLU::conv.5 # /home/benson/venv/lib/python3.12/site-packages/torch/nn/functional.py:1721:0
  %input.61 : Float(1, 128, 3, 3, strides=[1152, 9, 3, 1], requires_grad=0, device=cuda:0) = aten::_convolution(%2265, %world_model.encoder.rgb_encoder.conv.6.weight, %world_model.encoder.rgb_encoder.conv.6.bias, %2190, %2191, %2191, %2268, %2193, %2269, %2270, %2268, %2270, %2270), scope: model_architectures.DreamerActorOnnxWrapper::/model_architectures.DreamerEncoder::encoder/model_architectures.RGBEncoder::rgb_encoder/torch.nn.modules.container.Sequential::conv/torch.nn.modules.conv.Conv2d::conv.6 # /home/benson/venv/lib/python3.12/site-packages/torch/nn/modules/conv.py:548:0
  %2266 : Float(1, 128, 3, 3, strides=[1152, 9, 3, 1], requires_grad=1, device=cuda:0) = aten::relu(%input.61), scope: model_architectures.DreamerActorOnnxWrapper::/model_architectures.DreamerEncoder::encoder/model_architectures.RGBEncoder::rgb_encoder/torch.nn.modules.container.Sequential::conv/torch.nn.modules.activation.ReLU::conv.7 # /home/benson/venv/lib/python3.12/site-packages/torch/nn/functional.py:1721:0
  %2132 : Float(1, 128, 2, 2, strides=[512, 4, 2, 1], requires_grad=1, device=cuda:0) = aten::adaptive_avg_pool2d(%2266, %2190), scope: model_architectures.DreamerActorOnnxWrapper::/model_architectures.DreamerEncoder::encoder/model_architectures.RGBEncoder::rgb_encoder/torch.nn.modules.pooling.AdaptiveAvgPool2d::pool # /home/benson/venv/lib/python3.12/site-packages/torch/nn/functional.py:1399:0
  %2135 : Float(1, 512, strides=[512, 1], requires_grad=1, device=cuda:0) = aten::flatten(%2132, %2269, %2267), scope: model_architectures.DreamerActorOnnxWrapper::/model_architectures.DreamerEncoder::encoder/model_architectures.RGBEncoder::rgb_encoder # /home/benson/ros2-rover/remote_training_server/model_architectures.py:1021:0
  %input.65 : Float(1, 128, strides=[128, 1], requires_grad=1, device=cuda:0) = aten::linear(%1, %world_model.encoder.proprio_encoder.0.weight, %world_model.encoder.proprio_encoder.0.bias), scope: model_architectures.DreamerActorOnnxWrapper::/model_architectures.DreamerEncoder::encoder/torch.nn.modules.container.Sequential::proprio_encoder/torch.nn.modules.linear.Linear::proprio_encoder.0 # /home/benson/venv/lib/python3.12/site-packages/torch/nn/modules/linear.py:134:0
  %2137 : Float(1, 128, strides=[128, 1], requires_grad=1, device=cuda:0) = aten::silu(%input.65), scope: model_architectures.DreamerActorOnnxWrapper::/model_architectures.DreamerEncoder::encoder/torch.nn.modules.container.Sequential::proprio_encoder/torch.nn.modules.activation.SiLU::proprio_encoder.1 # /home/benson/venv/lib/python3.12/site-packages/torch/nn/functional.py:2397:0
  %input.67 : Float(1, 128, strides=[128, 1], requires_grad=1, device=cuda:0) = aten::linear(%2137, %world_model.encoder.proprio_encoder.2.weight, %world_model.encoder.proprio_encoder.2.bias), scope: model_architectures.DreamerActorOnnxWrapper::/model_architectures.DreamerEncoder::encoder/torch.nn.modules.container.Sequential::proprio_encoder/torch.nn.modules.linear.Linear::proprio_encoder.2 # /home/benson/venv/lib/python3.12/site-packages/torch/nn/modules/linear.py:134:0
  %2139 : Float(1, 128, strides=[128, 1], requires_grad=1, device=cuda:0) = aten::silu(%input.67), scope: model_architectures.DreamerActorOnnxWrapper::/model_architectures.DreamerEncoder::encoder/torch.nn.modules.container.Sequential::proprio_encoder/torch.nn.modules.activation.SiLU::proprio_encoder.3 # /home/benson/venv/lib/python3.12/site-packages/torch/nn/functional.py:2397:0
  %2140 : Tensor[] = prim::ListConstruct(%2036, %2135, %2139), scope: model_architectures.DreamerActorOnnxWrapper::/model_architectures.DreamerEncoder::encoder
  %2142 : Float(1, 4736, strides=[4736, 1], requires_grad=1, device=cuda:0) = aten::cat(%2140, %2267), scope: model_architectures.DreamerActorOnnxWrapper::/model_architectures.DreamerEncoder::encoder # /home/benson/ros2-rover/remote_training_server/model_architectures.py:1437:0
  %input.69 : Float(1, 1024, strides=[1024, 1], requires_grad=1, device=cuda:0) = aten::linear(%2142, %world_model.encoder.fuse.0.weight, %world_model.encoder.fuse.0.bias), scope: model_architectures.DreamerActorOnnxWrapper::/model_architectures.DreamerEncoder::encoder/torch.nn.modules.container.Sequential::fuse/torch.nn.modules.linear.Linear::fuse.0 # /home/benson/venv/lib/python3.12/site-packages/torch/nn/modules/linear.py:134:0
  %obs_embed : Float(1, 1024, strides=[1024, 1], requires_grad=1, device=cuda:0) = aten::silu(%input.69), scope: model_architectures.DreamerActorOnnxWrapper::/model_architectures.DreamerEncoder::encoder/torch.nn.modules.container.Sequential::fuse/torch.nn.modules.activation.SiLU::fuse.1 # /home/benson/venv/lib/python3.12/site-packages/torch/nn/functional.py:2397:0
  %2145 : Tensor[] = prim::ListConstruct(%h, %obs_embed), scope: model_architectures.DreamerActorOnnxWrapper::
  %2147 : Float(1, 1536, strides=[1536, 1], requires_grad=1, device=cuda:0) = aten::cat(%2145, %2267), scope: model_architectures.DreamerActorOnnxWrapper:: # /home/benson/ros2-rover/remote_training_server/model_architectures.py:1301:0
  %input.71 : Float(1, 512, strides=[512, 1], requires_grad=1, device=cuda:0) = aten::linear(%2147, %world_model.rssm.post_mlp.0.weight, %world_model.rssm.post_mlp.0.bias), scope: model_architectures.DreamerActorOnnxWrapper::/torch.nn.modules.container.Sequential::post_mlp/torch.nn.modules.linear.Linear::post_mlp.0 # /home/benson/venv/lib/python3.12/site-packages/torch/nn/modules/linear.py:134:0
  %2149 : Float(1, 512, strides=[512, 1], requires_grad=1, device=cuda:0) = aten::silu(%input.71), scope: model_architectures.DreamerActorOnnxWrapper::/torch.nn.modules.container.Sequential::post_mlp/torch.nn.modules.activation.SiLU::post_mlp.1 # /home/benson/venv/lib/python3.12/site-packages/torch/nn/functional.py:2397:0
  %2150 : Float(1, 1024, strides=[1024, 1], requires_grad=1, device=cuda:0) = aten::linear(%2149, %world_model.rssm.post_mlp.2.weight, %world_model.rssm.post_mlp.2.bias), scope: model_architectures.DreamerActorOnnxWrapper::/torch.nn.modules.container.Sequential::post_mlp/torch.nn.modules.linear.Linear::post_mlp.2 # /home/benson/venv/lib/python3.12/site-packages/torch/nn/modules/linear.py:134:0
  %2251 : int[] = prim::Constant[value=[-1, 32, 32]]()
  %post_lg : Float(1, 32, 32, strides=[1024, 32, 1], requires_grad=1, device=cuda:0) = aten::view(%2150, %2251), scope: model_architectures.DreamerActorOnnxWrapper:: # /home/benson/ros2-rover/remote_training_server/model_architectures.py:1301:0
  %2157 : NoneType = prim::Constant(), scope: model_architectures.DreamerActorOnnxWrapper::
  %2158 : Float(1, 32, 32, strides=[1024, 32, 1], requires_grad=1, device=cuda:0) = aten::softmax(%post_lg, %2267, %2157), scope: model_architectures.DreamerActorOnnxWrapper:: # /home/benson/venv/lib/python3.12/site-packages/torch/nn/functional.py:2159:0
  %2271 : Long(device=cpu) = prim::Constant[value={0}](), scope: model_architectures.DreamerActorOnnxWrapper::
  %2160 : Long(device=cpu) = aten::size(%input.3, %2271), scope: model_architectures.DreamerActorOnnxWrapper:: # /home/benson/ros2-rover/remote_training_server/model_architectures.py:1606:0
  %2272 : Long(device=cpu) = prim::Constant[value={1024}](), scope: model_architectures.DreamerActorOnnxWrapper::
  %2173 : int[] = prim::ListConstruct(%2160, %2272), scope: model_architectures.DreamerActorOnnxWrapper::
  %2174 : Float(1, 1024, strides=[1024, 1], requires_grad=1, device=cuda:0) = aten::view(%2158, %2173), scope: model_architectures.DreamerActorOnnxWrapper:: # /home/benson/ros2-rover/remote_training_server/model_architectures.py:1607:0
  %2175 : Tensor[] = prim::ListConstruct(%h, %2174), scope: model_architectures.DreamerActorOnnxWrapper::/model_architectures.DreamerActor::actor
  %2177 : Float(1, 1536, strides=[1536, 1], requires_grad=1, device=cuda:0) = aten::cat(%2175, %2267), scope: model_architectures.DreamerActorOnnxWrapper::/model_architectures.DreamerActor::actor # /home/benson/ros2-rover/remote_training_server/model_architectures.py:1514:0
  %input.73 : Float(1, 512, strides=[512, 1], requires_grad=1, device=cuda:0) = aten::linear(%2177, %actor.net.0.weight, %actor.net.0.bias), scope: model_architectures.DreamerActorOnnxWrapper::/model_architectures.DreamerActor::actor/torch.nn.modules.container.Sequential::net/torch.nn.modules.linear.Linear::net.0 # /home/benson/venv/lib/python3.12/site-packages/torch/nn/modules/linear.py:134:0
  %2179 : Float(1, 512, strides=[512, 1], requires_grad=1, device=cuda:0) = aten::silu(%input.73), scope: model_architectures.DreamerActorOnnxWrapper::/model_architectures.DreamerActor::actor/torch.nn.modules.container.Sequential::net/torch.nn.modules.activation.SiLU::net.1 # /home/benson/venv/lib/python3.12/site-packages/torch/nn/functional.py:2397:0
  %input : Float(1, 512, strides=[512, 1], requires_grad=1, device=cuda:0) = aten::linear(%2179, %actor.net.2.weight, %actor.net.2.bias), scope: model_architectures.DreamerActorOnnxWrapper::/model_architectures.DreamerActor::actor/torch.nn.modules.container.Sequential::net/torch.nn.modules.linear.Linear::net.2 # /home/benson/venv/lib/python3.12/site-packages/torch/nn/modules/linear.py:134:0
  %2181 : Float(1, 512, strides=[512, 1], requires_grad=1, device=cuda:0) = aten::silu(%input), scope: model_architectures.DreamerActorOnnxWrapper::/model_architectures.DreamerActor::actor/torch.nn.modules.container.Sequential::net/torch.nn.modules.activation.SiLU::net.3 # /home/benson/venv/lib/python3.12/site-packages/torch/nn/functional.py:2397:0
  %2182 : Float(1, 2, strides=[2, 1], requires_grad=1, device=cuda:0) = aten::linear(%2181, %actor.mean_head.weight, %actor.mean_head.bias), scope: model_architectures.DreamerActorOnnxWrapper::/model_architectures.DreamerActor::actor/torch.nn.modules.linear.Linear::mean_head # /home/benson/venv/lib/python3.12/site-packages/torch/nn/modules/linear.py:134:0
  %2273 : Double(device=cpu) = prim::Constant[value={-5}](), scope: model_architectures.DreamerActorOnnxWrapper::/model_architectures.DreamerActor::actor
  %2274 : Double(device=cpu) = prim::Constant[value={2}](), scope: model_architectures.DreamerActorOnnxWrapper::/model_architectures.DreamerActor::actor
  %2185 : Float(2, strides=[1], requires_grad=1, device=cuda:0) = aten::clamp(%actor.log_std, %2273, %2274), scope: model_architectures.DreamerActorOnnxWrapper::/model_architectures.DreamerActor::actor # /home/benson/ros2-rover/remote_training_server/model_architectures.py:1516:0
  return (%2182, %2185, %h, %2174)

ONNX export failed: Exporting the operator 'aten::_thnn_fused_gru_cell' to ONNX opset version 18 is not supported
Traceback (most recent call last):
  File "/home/benson/ros2-rover/remote_training_server/v620_dreamer_trainer.py", line 496, in _export_onnx
    torch.onnx.export(
  File "/home/benson/venv/lib/python3.12/site-packages/torch/onnx/__init__.py", line 334, in export
    export(
  File "/home/benson/venv/lib/python3.12/site-packages/torch/onnx/_internal/torchscript_exporter/utils.py", line 552, in export
    _export(
  File "/home/benson/venv/lib/python3.12/site-packages/torch/onnx/_internal/torchscript_exporter/utils.py", line 1515, in _export
    graph, params_dict, torch_out = _model_to_graph(
                                    ^^^^^^^^^^^^^^^^
  File "/home/benson/venv/lib/python3.12/site-packages/torch/onnx/_internal/torchscript_exporter/utils.py", line 1117, in _model_to_graph
    graph = _optimize_graph(
            ^^^^^^^^^^^^^^^^
  File "/home/benson/venv/lib/python3.12/site-packages/torch/onnx/_internal/torchscript_exporter/utils.py", line 689, in _optimize_graph
    graph = _C._jit_pass_onnx(graph, operator_export_type)
            ^^^^^^^^^^^^^^^^^^^^^^^^^^^^^^^^^^^^^^^^^^^^^^
  File "/home/benson/venv/lib/python3.12/site-packages/torch/onnx/_internal/torchscript_exporter/utils.py", line 1797, in _run_symbolic_function
    raise errors.UnsupportedOperatorError(
torch.onnx.errors.UnsupportedOperatorError: Exporting the operator 'aten::_thnn_fused_gru_cell' to ONNX opset version 18 is not supported
Dreamer Trainer initialized: WM=19,097,578, Actor+Critic=2,100,741
  T_chunk=64, batch=16, horizon=15
ZMQ PULL bound on tcp://*:5555
ZMQ XPUB bound on tcp://*:5556
Waiting for 4 chunks before training starts...
Waiting for rover chunks...
